data/output/resumed_rl_model.pth (torch_old, 80171 bytes, 11 tensors)

value_network.0.weight f4 [100, 6]
000000 a3 d1 02 40 2f 4c b8 40 ef 02 3b bf b7 af 34 40
       2.0440452 5.7592998 -0.7305135 2.8232248
000010 2a 62 3f 3f 01 57 db bf 29 fb ed 3f 7d 52 50 40
       0.7475916 -1.7135926 1.8592273 3.2550347
000020 53 06 7e bd 15 64 31 bf 0c f7 15 3f 48 03 f9 3f
       -0.06201775 -0.6929334 0.5858009 1.9454126
000030 e6 d8 1a c0 09 0d e1 3f 4c e1 70 c0 2b 9c 54 be
       -2.4194884 1.7582103 -3.763751 -0.20762698
000040 2f 05 db be 0b 3d 44 40 46 75 61 3f b7 2a af 40
       -0.42777392 3.0662258 0.8806957 5.473964
000050 21 69 53 3f ef 61 94 3e ad 01 c4 3e 04 49 51 3e
       0.8258229 0.28980967 0.3828253 0.2043801
000060 bf a8 e2 3e 6c 85 96 c0 35 13 06 40 10 bb cb 3f
       0.44269368 -4.703787 2.0949223 1.5916462
000070 50 41 cc 3b 47 fe 86 3f dd 3c 86 40 ee e5 98 40
       0.006233372 1.0546349 4.1949296 4.7780676
000080 99 dd e8 bf 1b f3 15 bf 61 c5 d3 3f 17 96 6d 40
       -1.8192626 -0.58574075 1.654461 3.7122858
000090 b5 e6 c0 c0 cb a2 2e 3f 05 03 69 be be cb a3 bf
       -6.0281625 0.6821715 -0.22755058 -1.2796552
0000a0 dc 99 36 3e f5 f6 2a 40 42 09 01 41 fb 1d 26 40
       0.1783213 2.671323 8.06476 2.5955799
0000b0 9a db 9a c0 8b f6 35 c0 a8 63 d6 bf c6 d8 d4 c0
       -4.839307 -2.8431728 -1.6749163 -6.6514616
0000c0 20 a5 e2 be c6 7d 14 bf 9f 40 83 be 62 05 82 40
       -0.44266605 -0.58004415 -0.2563524 4.063157
0000d0 cf c9 9b 3e 5d d7 53 bf 39 0d dd bd 58 18 1f c0
       0.30427405 -0.82750493 -0.10793538 -2.4858608
0000e0 a0 b1 29 c0 c7 7d 11 bf 83 13 3b bd 04 d7 c0 bf
       -2.6514664 -0.56832546 -0.045672905 -1.5065618
0000f0 29 56 21 41 96 e7 17 40 5a 9b 00 c0 f0 a1 64 3c
       10.083535 2.37351 -2.009482 0.0139546245
000100 29 63 d4 bf 7a df 23 c1 fc 4a eb bf e0 48 a8 c0
       -1.6592761 -10.24206 -1.8382258 -5.258896
000110 e2 15 f3 3c 75 17 8e 3f 0f 63 d1 be a8 b1 88 3f
       0.02967352 1.1100909 -0.40895888 1.0679216
000120 66 84 1c c1 86 b1 38 40 11 cf 79 be a9 ce ad bf
       -9.782324 2.8858352 -0.24395396 -1.3578693
000130 87 e2 f6 bf 65 80 0e c1 86 fb c5 c0 08 95 44 40
       -1.9287881 -8.906346 -6.1869535 3.0715961
000140 0f fd 8d 3d 57 ab 36 c0 fb 5e 32 3f 7a 87 6f c0
       0.06933033 -2.8542078 0.6967618 -3.7426438
000150 cd ba c2 c0 d4 d5 24 40 93 46 0b 40 3e 0c 5a c0
       -6.085303 2.575551 2.1761825 -3.4069972
000160 6c 2c eb 3f a1 c7 9b 40 ec 72 39 41 9f fc 49 c0
       1.8372931 4.868119 11.590557 -3.1560438
000170 2b 63 17 c0 a7 2d 3a 3f a2 41 1a 40 32 2e 29 41
       -2.3654277 0.7272591 2.410256 10.573778
000180 ae 22 19 c1 b3 84 f7 3d ea 55 2e 40 2f 3b df 3e
       -9.570967 0.12085857 2.7239938 0.4359984
000190 c5 7e 0c c0 dd 45 06 c1 6c 14 fa 3f e3 5f 8a c0
       -2.1952374 -8.392056 1.9537482 -4.324205
0001a0 a3 5f 61 bf 4f 15 68 40 70 51 75 3e 86 9e 1c 41
       -0.88036555 3.6263006 0.23956847 9.788702
0001b0 b6 29 9e 40 49 31 cf 3f 89 97 d4 3e fd 9e 54 c0
       4.9425917 1.6186916 0.41521862 -3.3222039
0001c0 74 35 87 3e 1a 04 db 3f 9f 4b 3b 40 99 77 60 c0
       0.2640797 1.7110627 2.9264905 -3.5072997
0001d0 c1 32 19 bf 01 a2 d0 bd 7f c2 c4 3e 5d 55 5f c0
       -0.5984307 -0.1018715 0.3842964 -3.4895852
0001e0 e3 aa 19 3c be 7c ab c0 70 bc b7 3f bf 49 83 bf
       0.0093791215 -5.3589773 1.4354382 -1.025688
0001f0 9e 68 e8 3f 79 09 98 40 43 68 c2 3f 7b e3 a8 c0
       1.8156927 4.7511563 1.5188068 -5.2777686
000200 aa d9 87 be 57 a7 0b 40 66 bf 04 3f e4 09 72 40
       -0.26533252 2.1820886 0.5185455 3.7818537
000210 f6 70 4c 40 ac 99 55 c0 8b 65 80 3f bb 08 d8 3f
       3.1943946 -3.3375044 1.0030988 1.6877664
000220 80 24 6d 3f ce da 02 bf a5 86 8d c0 07 8c db 40
       0.9263382 -0.5111512 -4.422686 6.860843
000230 f4 c9 3c 3f 48 0a 2d c0 26 05 5a c0 46 8b c4 c0
       0.73745656 -2.7037525 -3.4065642 -6.142001
000240 2b 97 e8 40 ba e4 67 3f a2 cf 70 c0 b7 e6 29 c0
       7.268453 0.90583384 -3.762673 -2.6547067
000250 3d 36 d4 bf 21 9a 88 c0 d6 91 73 3f 98 d8 4f 3f
       -1.6579052 -4.2688146 0.95144403 0.8118987
000260 44 ea ae bf cd a8 7d c0 5f 09 19 c0 df b4 dc be
       -1.3665242 -3.9634278 -2.391197 -0.43106744
000270 83 df 95 c0 17 75 63 40 bc a9 12 c0 18 01 ba bc
       -4.683534 3.5540216 -2.2916098 -0.0227056
000280 30 88 98 bf 41 93 92 c0 a9 9a 38 40 ab cb a6 c0
       -1.1916561 -4.5804753 2.8844397 -5.212362
000290 ea 3f 2c bf 34 9b 8f 3f 2f 0d c8 3f 14 b5 8b 40
       -0.67285025 1.1219239 1.5629023 4.3658543
0002a0 11 c2 b6 3f 12 1d d1 bf 49 80 f5 3e 08 fe 7a 3f
       1.4277974 -1.6336997 0.47949436 0.9804387
0002b0 a0 26 e6 be 93 6e c6 c0 2f 9c 8d 3f 33 57 63 c0
       -0.44951344 -6.200998 1.1063288 -3.5521972
0002c0 3c 23 0b c0 36 f5 70 40 95 1f 05 40 ec 4e 5d 40
       -2.1740255 3.7649665 2.0800526 3.457942
0002d0 29 98 8e 40 3f b8 10 40 ab ca 23 c0 a4 c8 c2 bf
       4.456074 2.2612455 -2.5592449 -1.5217481
0002e0 f9 f1 7e 3f 33 53 32 40 03 32 f5 40 10 7b 7e 40
       0.9958797 2.786328 7.662355 3.9762611
0002f0 16 40 31 c0 88 f7 d8 bf 8b 36 d4 3f 4d 23 e3 40
       -2.7695365 -1.695054 1.6579145 7.098059
000300 93 4d 4f bf 17 35 9c 3f 0e 91 84 3f 04 7a 35 c0
       -0.80977744 1.2203702 1.0356767 -2.8355722
000310 18 51 a1 3e 73 7b 3c c0 d9 ef 9a 3f b7 64 70 40
       0.31507182 -2.9450347 1.2104446 3.7561471
000320 e4 62 1f bf 7f 3f c7 bf 19 31 e9 3e 77 41 8f 3f
       -0.6226027 -1.5566252 0.4554527 1.1191853
000330 9d df ce bf 0a 57 75 40 7d c1 fd bf 92 ac 9d bf
       -1.6161991 3.8334374 -1.9824673 -1.2318289
000340 e7 97 48 bf 8c 8c 96 40 95 0e 80 40 1f 3d c3 c0
       -0.78356785 4.7046566 4.00178 -6.101211
000350 61 b4 e8 bd 61 33 49 3f 91 4d da 3e 3a 2d 89 3f
       -0.113625295 0.78594023 0.42637303 1.0716927
000360 5e 33 25 41 36 d8 d4 3f 7a a8 e7 bf 4a 76 5b bf
       10.325041 1.6628482 -1.809829 -0.8572737
000370 e5 46 c4 3f 7d 17 0e 41 df db 0e c0 1a 28 6c c0
       1.5334135 8.880734 -2.2321699 -3.6899476
000380 97 a4 1c 3f 4a d3 0f 40 67 17 91 bf 9e 96 a9 bf
       0.61188644 2.247271 -1.1335267 -1.324909
000390 5f 0c bf c0 ab 66 ce 40 cd 98 cd 3f 71 10 16 3f
       -5.97026 6.4500327 1.6062256 0.5861884
0003a0 51 71 f1 bf 29 9a f3 c0 0f 5e 27 41 82 55 98 bf
       -1.8862706 -7.6125684 10.460464 -1.1901095
0003b0 1b 4f 83 c0 4d 56 a1 bf f3 c9 2b c0 ad 9f e4 c0
       -4.1034064 -1.2604462 -2.684201 -7.1444917
0003c0 30 a1 54 bf 82 a9 3e c0 76 01 95 bd 75 93 d1 bf
       -0.8305845 -2.979096 -0.07275669 -1.6373125
0003d0 c7 26 d0 be 34 00 a1 3f c9 9f 87 bf 61 c0 9f 40
       -0.40654585 1.2578187 -1.0595638 4.9922338
0003e0 69 6f 96 3e e8 29 44 c0 27 4b 4c 3f 48 8d 29 40
       0.29381874 -3.0650578 0.79802173 2.6492481
0003f0 be 66 8e c0 a7 6f 2c c0 23 08 03 c0 0e bd ac 3f
       -4.450042 -2.6943147 -2.0473716 1.3495195

value_network.0.bias f4 [100]
000000 96 79 e9 3f f4 ed 90 3f 10 6f fc be 9d 65 0a 3e
       1.824023 1.1322618 -0.49303484 0.13515325
000010 86 ac 07 bf f3 72 40 40 8b a2 8f 3d e6 0c 49 c0
       -0.52997625 3.007016 0.070134245 -3.1414123
000020 bd 28 31 3e 51 8f 99 3e bb b0 8a c0 ca 9a eb be
       0.17300697 0.29992154 -4.3340735 -0.46016532
000030 0d 38 48 c0 a0 26 c4 3e 5a 93 6d 40 62 7a 95 40
       -3.128421 0.3831072 3.7121186 4.6711893
000040 56 f4 81 c0 e6 d3 8c 3f 54 79 96 3e 3f 64 46 3d
       -4.061076 1.1002166 0.2938944 0.048435446
000050 de fa 4e 40 62 b8 9a 3f 4a 17 ba 3f 26 80 d2 c0
       3.2340617 1.2087519 1.4538357 -6.578143
000060 ed 75 26 c0 5d 2f 75 c0 ac 3c 05 c0 eb f2 32 40
       -2.6009476 -3.8310158 -2.081828 2.7960765
000070 b8 5e 90 be a5 41 98 40 4e 23 2a 40 83 90 45 40
       -0.28197265 4.7580132 2.6584048 3.0869453
000080 47 17 b6 3e 81 ce 9c 3f f5 82 bf bf ef 8c 5d 3f
       0.35564634 1.225052 -1.496184 0.8654317
000090 a7 ab 65 40 49 eb 07 c0 75 2e 4c c0 0b 08 a1 c0
       3.5886018 -2.1237357 -3.1903355 -5.032232
0000a0 98 1b cd be 29 c8 2d 3f 4c db d0 bf 59 ce 82 40
       -0.40060115 0.67883545 -1.6316924 4.087689
0000b0 bc fd ee 3c fa 1b 1e 3e 4c 73 97 3f 2e ae 69 40
       0.029173724 0.1544036 1.1832061 3.651256
0000c0 df 05 67 3f 1f 5e 38 40 c3 c1 0c 40 17 e4 86 40
       0.90243334 2.8807447 2.1993263 4.215343
0000d0 7c 20 21 3f 13 e3 01 3f 33 22 01 3f b7 a0 6f 40
       0.6294019 0.5073711 0.5044281 3.7441843
0000e0 e1 7b 3d be 84 fb b0 3f 36 be c2 3f f8 2b 95 bf
       -0.18504287 1.3826756 1.5214298 -1.1654043
0000f0 43 7e 1b 40 0e 4a 8a bf f2 64 a9 3f bd 04 3b c0
       2.4295814 -1.080385 1.3233931 -2.9221642
000100 10 65 b9 bf ba 2d 84 3f 7f 5c b3 3f 81 9a 0a c0
       -1.4483967 1.0326455 1.4012603 -2.1656802
000110 79 3a 19 c0 ef 88 11 40 5f 47 00 40 a6 3f ab 3f
       -2.394194 2.2739828 2.0043561 1.3378799
000120 f1 79 18 40 50 73 e6 3f 88 74 89 bd 96 51 16 3f
       2.3824427 1.800394 -0.0671168 0.5871824
000130 20 af 46 40 75 2c ef be 50 0a 30 40 28 86 fc bf
       3.1044388 -0.46713606 2.7506294 -1.9728441
000140 05 0c 9f 40 22 e3 56 3e da 6e 8e 3f 1a 96 11 c0
       4.970217 0.20985082 1.1127579 -2.2747865
000150 36 14 55 3e 12 35 e8 bf 2e eb e7 3f d4 3e ca 3f
       0.20808491 -1.8141196 1.8118646 1.5800424
000160 1f 0c 64 3f a2 e2 53 3f 13 b3 b5 bf 6f af 65 3f
       0.89080995 0.8276769 -1.4195274 0.89720815
000170 03 49 08 bf aa 29 2a c0 14 5f 1f 40 2b 49 d3 bf
       -0.5323641 -2.658793 2.490178 -1.6506704
000180 2f ce c0 be 76 66 66 3f bd 60 ee 3f b5 c5 fd bf
       -0.37657306 0.90000093 1.8623272 -1.982596

value_network.2.weight f4 [100, 100]
000000 cf 2c 01 3f 10 c9 3e 3e 93 7d c0 3e ad 81 55 3f
       0.50459 0.18631387 0.37595806 0.83400995
000010 87 00 70 bf d0 5c c0 3e bd cd 00 bf 30 fa 82 3f
       -0.93750805 0.3757081 -0.5031393 1.0232601
000020 da 92 37 bd 75 c2 03 bf 59 e8 0d 40 28 6d 46 bf
       -0.044817783 -0.5146859 2.2173064 -0.7751031
000030 d2 64 8e 3f 98 68 45 3f d9 89 46 3e 82 b0 1b bf
       1.1124518 0.7711272 0.19388522 -0.60816205
000040 2d 89 73 3f c9 b4 ff bd 3a b3 ec 3d f3 62 b1 be
       0.9513119 -0.12485654 0.11557622 -0.34645805
000050 a2 48 ed be 1f 23 f0 be 42 b5 93 be 87 63 77 3f
       -0.46344477 -0.46901795 -0.28849226 0.9663624
000060 0d 29 57 3f 50 5d d9 bf 18 ac 83 3e 4c f9 da be
       0.84047014 -1.6981602 0.25717235 -0.42768323
000070 ac 35 e7 3e 4c d1 a0 be b8 81 17 3f 93 56 b7 3e
       0.45158136 -0.3140968 0.5918231 0.35808238
000080 4a 35 60 bb f4 c7 3d 3f 7c 34 a8 be f2 38 92 bf
       -0.003421145 0.7413323 -0.32852542 -1.1423628
000090 9c 0e 04 3d 6c a0 8c be 9e 61 8b 3f 1d 8f 14 3f
       0.032240495 -0.27466142 1.0889165 0.58030874
0000a0 02 79 51 bf a7 da ca bc b1 a0 08 3f a5 b5 89 bf
       -0.8182527 -0.024762465 0.53370196 -1.0758559
0000b0 cb 19 59 bf 14 47 2b 3f fd a5 98 3e fb 30 d0 bf
       -0.8480498 0.6690533 0.2981414 -1.6264948
0000c0 11 ee fa 3e 2b 5d 79 bf 81 62 0d bf ea a1 fd 3f
       0.49009755 -0.9740779 -0.5522843 1.9815037
0000d0 b2 08 9f be ff 79 f2 3e 40 cc 39 be f9 ed 6c bf
       -0.31061321 0.473587 -0.18144321 -0.9255062
0000e0 b0 62 22 3f 42 f7 70 3f b1 31 ca bf 4e c9 a9 bf
       0.63431835 0.94127285 -1.5796415 -1.3264558
0000f0 28 c8 86 bf a4 dd b2 3e 8d ba e4 be a4 14 54 3e
       -1.0529833 0.34934723 -0.44673577 0.20710999
000100 f0 ca 05 3f 0e bd 06 3f 8a 7d e3 bd 54 6b dc 3e
       0.52262783 0.52632225 -0.11107929 0.43050635
000110 d1 a7 46 bd c1 43 b6 be c8 aa 22 3f d3 f5 4e bf
       -0.048499886 -0.35598567 0.6354184 -0.8084385
000120 e5 60 eb 3e 22 ee cf be c5 4e 62 3f 93 f7 b1 bd
       0.45972362 -0.40611368 0.8840144 -0.08689799
000130 8f b8 fb be 9c 6f 9f bf f9 5d a5 be ca d8 c9 3e
       -0.49164245 -1.2455935 -0.32298258 0.3942321
000140 e8 bd 76 bf 35 8f 56 3f 6e ec ee 3e 61 f4 31 3f
       -0.96383524 0.83812267 0.46664757 0.6951352
000150 9b 53 05 bf 98 6f 2b bf c6 a8 21 bf 20 fa e7 3e
       -0.52080697 -0.66967154 -0.6314815 0.45308018
000160 94 5a 48 3f 6c a7 09 bf fb 65 12 3f 9c 58 f6 3e
       0.7826321 -0.5377109 0.5718686 0.4811448
000170 a3 1e 37 3f f8 fc e3 bf b8 15 b4 3d a1 52 e7 3e
       0.7153112 -1.7811575 0.08793205 0.45180228
000180 d3 eb 6a bf 50 4e ab 3f 3b 91 d9 3c 20 89 3e bf
       -0.9176609 1.3383274 0.02655851 -0.74427986
000190 09 e1 42 be 68 d7 a7 be 39 4d 04 3a f6 83 48 3d
       -0.19031157 -0.3278153 0.00050469075 0.048953973
0001a0 46 7b 93 be 03 8f 04 3e 31 55 80 3e 74 fd 3a bf
       -0.28804988 0.1294518 0.25064996 -0.7304299
0001b0 43 2c ca 3f 7f 4e 03 3f 1e 1f 64 bf 09 57 01 bb
       1.5794758 0.5129165 -0.8910998 -0.0019735715
0001c0 99 f3 ef be 8a e2 a0 bf a1 69 56 3f d9 bb 5b 3f
       -0.46865538 -1.2569134 0.83754927 0.8583351
0001d0 4c f8 33 be 47 25 81 bf e6 12 90 bf b6 c0 c5 be
       -0.17575186 -1.0089501 -1.1255767 -0.3862359
0001e0 1f 1a e5 3e cc 87 c3 3d 41 56 74 3d 98 31 c4 3e
       0.4474649 0.095473856 0.05965257 0.38319087
0001f0 ee 4a 4e bf b4 97 55 3e 1a 90 f8 bd 44 50 88 be
       -0.80583084 0.20858651 -0.1213686 -0.26623738
000200 7c ca 14 3f 95 55 2d 3f 5e ee d2 3c 76 d0 85 3e
       0.58121467 0.6770871 0.025748428 0.26135606
000210 88 cf 4b be eb 11 91 3d 40 ec 1e bf fb 26 a3 3d
       -0.19903386 0.07083496 -0.6207924 0.07966419
000220 ec 25 a2 3e 58 30 4a 3c 95 1f fe 3d 6d 5e c1 bf
       0.31669557 0.012340628 0.124083675 -1.5106941
000230 f4 08 c0 3d d1 e4 8e 3d 81 20 6c 3f 02 9a 9b 3f
       0.09376708 0.06977237 0.922371 1.2156374
000240 52 c4 48 bb 83 03 c7 bd 14 7f 98 3e 51 da d6 3f
       -0.0030634594 -0.09717467 0.29784453 1.6785375
000250 8b 4b e3 3e 32 b3 54 3f 45 78 89 3f cb 4a 44 be
       0.44393572 0.8308593 1.0739828 -0.19169156
000260 98 2d f7 3e 11 67 78 be ab 04 b6 bf 3e 63 a2 3f
       0.48276973 -0.24258067 -1.4220175 1.2686536
000270 43 5d 21 bd 51 2a bf 3d 4c e8 5b bf 23 d8 3e bd
       -0.039395582 0.09334243 -0.8590133 -0.046592843
000280 2c c2 26 3f 18 8b e2 be ae f3 33 bd 7e 9b ca 3e
       0.6514003 -0.44246745 -0.043933563 0.39571756
000290 c3 6e 48 be 20 98 74 be 9e 3f 88 3c c4 6b c4 be
       -0.19573502 -0.23886156 0.016631898 -0.3836347
0002a0 3e 4b 8b be 76 1c ba 3f c0 1b 87 3e 01 1c c4 3d
       -0.27205843 1.4539936 0.2638836 0.09575654
0002b0 b1 60 e3 3e 62 c3 14 3e cc 6e 27 3d 69 47 7c 3e
       0.44409707 0.14527658 0.04087715 0.24636616
0002c0 86 f0 ad bd bb 80 84 be 7e 6d d8 3e 71 38 3f be
       -0.08493142 -0.25879464 0.42271036 -0.18673874
0002d0 71 ca 58 3f 1e 85 86 bd be af 1c bd 9d 75 58 be
       0.846839 -0.06568359 -0.03825354 -0.21138616
0002e0 4a d9 c5 3f c0 1b 3a 3d 6a 29 d1 3d 1b b6 42 3f
       1.5456936 0.04543662 0.10212977 0.7605912
0002f0 e8 bf 63 bd 65 91 8a 3e 28 c9 21 bf 04 ed 61 be
       -0.055602938 0.27064052 -0.63197565 -0.2206307
000300 74 72 be be c6 31 00 3e b8 ec 85 3e 95 5a 41 bf
       -0.37196696 0.12518987 0.26157165 -0.7552884
000310 66 59 3b bf 75 14 f0 3f 54 f5 bd be 7e 4d 89 3e
       -0.73183286 1.8756243 -0.37101233 0.26816934
000320 fb b8 0f 3f d7 5d 95 be 4c 0c cd 3e d8 67 c0 3d
       0.5614163 -0.29173157 0.40048444 0.093948066
000330 4e 81 06 bf 95 db 67 be 22 7e cd bd 51 14 84 3d
       -0.52541053 -0.22642358 -0.100338235 0.064491875
000340 3c c4 f8 be a8 df b2 3d 9e 59 a9 3e 60 f7 91 bd
       -0.48587215 0.08734065 0.33076185 -0.07127261
000350 74 60 35 3e 23 e9 46 3f f1 21 6c 3f e8 04 a2 be
       0.17712575 0.7769949 0.9223929 -0.31644368
000360 f3 e2 b4 3e 17 c4 15 bf ba de 8f be c7 f5 19 bf
       0.353294 -0.58502334 -0.28099614 -0.6014065
000370 f2 91 3d bf 6f 0b 9c be 95 34 83 bf df c1 7c be
       -0.7405082 -0.30477473 -1.0250422 -0.24683331
000380 28 3d 24 bd 71 51 9d bf 4c e0 a7 3e d4 99 82 be
       -0.040097386 -1.2290479 0.32788312 -0.25507987
000390 4a db ca be 75 65 cb 3e a7 7d 3d bd 64 86 46 be
       -0.3962043 0.39725843 -0.04626241 -0.19387203
0003a0 15 93 99 3e de 04 9b 3e c0 c2 8d 3e 3c c8 c8 be
       0.29995027 0.3027715 0.27687645 -0.39215267
0003b0 17 32 e5 be b3 ff 90 3e a7 c5 e3 3e bf dd 8b 3e
       -0.44764778 0.28320083 0.44486734 0.27317616
0003c0 a2 1f e1 be 94 55 30 3f 99 60 49 3f 47 27 5d 3e
       -0.43969446 0.6888058 0.7866302 0.21597014
0003d0 79 77 4c bf 13 ee 7d 3e 45 dc c3 3e 95 a6 20 bd
       -0.798698 0.2479785 0.3825399 -0.039221365
0003e0 bc 3c 24 3f a3 be fe be e8 95 e3 3d 66 dc a0 3f
       0.64155173 -0.4975482 0.11112577 1.256726
0003f0 b8 23 e1 3c 73 1a d1 3e f8 94 f6 3b f6 9c 80 be
       0.027482852 0.40840492 0.0075250827 -0.25119752

value_network.2.bias f4 [100]
000000 b8 07 93 3f 19 45 a6 be 8d b3 62 3f ed 28 6a bf
       1.148673 -0.32474592 0.8855522 -0.914687
000010 74 a5 f4 bd 9f 5d b0 be 8a 7e 56 bf 4b 26 cc 3f
       -0.1194562 -0.34446427 -0.83786833 1.5949186
000020 6d e9 34 3f 32 4e 50 bf 6d 9b 52 be 42 75 94 3f
       0.7066868 -0.81369317 -0.20567103 1.1598284
000030 35 5e a2 3f ca cf a0 bf a2 fd 93 3f 92 bb 18 40
       1.2685 -1.2563412 1.1561778 2.3864484
000040 5b 3b c5 bf 03 94 10 be 7d 0b 83 bf 61 0d 92 3f
       -1.5408739 -0.14118962 -1.0237881 1.1410333
000050 76 a1 bf bc fb 33 44 3f 40 f4 4c bf 20 88 a7 be
       -0.02339242 0.76641816 -0.80060196 -0.32721043
000060 7a 1a 59 3f 72 a9 84 3f fb 02 25 bf 88 25 0b 40
       0.84806025 1.0364211 -0.6445767 2.1741657
000070 a8 24 85 bf b4 a3 ef be 68 6c 58 bf 4c d8 2d 3d
       -1.0401812 -0.46804583 -0.84540415 0.042442605
000080 5b d8 9f 3e 01 21 a6 bf e0 87 45 bf a9 74 9a bf
       0.31219754 -1.2978822 -0.77160454 -1.2066852
000090 91 e6 d9 bd 66 36 f1 be 78 a1 5f 3f ae d1 54 3e
       -0.1063968 -0.47111815 0.87355757 0.20783111
0000a0 3e f8 2d 3f 38 aa 4a 3e 42 fa 38 3f fe 7a 19 bf
       0.6795691 0.19791496 0.72256863 -0.59953296
0000b0 eb d3 b6 bd 2f 75 53 3e 37 9c 73 3d 6f 6b 74 3f
       -0.08927139 0.2065017 0.05947515 0.9547643
0000c0 aa c8 c6 be 72 c0 43 bf dd b6 9f 3f 00 e0 d4 3e
       -0.3882497 -0.76465523 1.247768 0.41577148
0000d0 8d 1d 47 bf f5 f5 a5 bf 63 2a 8c 3f 72 80 24 3f
       -0.77779466 -1.2965685 1.0950435 0.6425849
0000e0 0f ff 3f 3f d3 c5 33 40 d8 d6 aa 3f ae 3b 3f 3f
       0.74998564 2.8089492 1.3346815 0.7470044
0000f0 0b 5f 5f 3e dc ed 5e 3f 8f a0 88 3f 93 20 85 bf
       0.218136 0.87081695 1.0673999 -1.0400566
000100 a1 24 2f bf b7 39 52 bf 8f 1a 2b 3f a0 1d 26 3e
       -0.68415266 -0.82119316 0.668374 0.16222239
000110 87 c5 f4 bd 15 5d ea 3d a8 c0 ab 3f 82 a9 ae 3e
       -0.11951738 0.11443535 1.3418169 0.341137
000120 18 ae 61 3d 80 9c 8d be 8a 97 0c 3f 4c 46 22 bc
       0.05509767 -0.27658463 0.5491873 -0.009904455
000130 59 34 21 3f 5e 30 ec be 29 e9 3a bf 54 4b 01 bf
       0.629705 -0.4613065 -0.73012024 -0.50505567
000140 95 f8 2a 3f 38 17 11 bf a8 63 27 3f ac ca b3 be
       0.66785556 -0.56676054 0.6538644 -0.35115564
000150 e1 3f 0d 3f 73 04 0c bf 80 a5 4a 3f fb de 6d 3e
       0.55175596 -0.5469429 0.7915878 0.23229592
000160 04 07 63 3e a4 fd 97 be 8f 25 76 bf 42 74 af bf
       0.22170645 -0.296857 -0.9615106 -1.3707354
000170 fa 66 d4 bf 73 11 07 3f b2 c9 2b bf 9b ec 0b 40
       -1.6593926 0.52761 -0.6710464 2.1863163
000180 ee 7e 18 3e d3 bb 1d 3f a6 6e 52 3f 20 c8 df 3e
       0.1489217 0.6161472 0.82200086 0.4370737

value_network.4.weight f4 [5, 100]
000000 52 86 e5 be 7f 5c b1 bf 9e 00 af be 14 6e 37 3e
       -0.4482904 -1.3856353 -0.34180158 0.17913085
000010 87 73 aa bf f3 66 02 40 70 c2 19 3f 2c 3d fc bf
       -1.3316506 2.0375335 0.60062313 -1.9706168
000020 5c 5c 23 be 66 13 22 c0 41 3c 28 bf e4 64 06 c0
       -0.15953201 -2.532434 -0.6571694 -2.0999079
000030 af 7f 30 bf d8 ce c9 be 96 09 02 c0 d3 f6 86 bf
       -0.6894483 -0.39415622 -2.031835 -1.0544075
000040 ff a7 07 bf ff 9e fa 3f 18 49 d0 be 37 e5 91 bf
       -0.52990717 1.9579772 -0.40680766 -1.1398076
000050 aa 90 32 bf 63 54 67 bf 0f 63 7b be 5a 1e 9a bf
       -0.6975199 -0.9036314 -0.24549507 -1.2040513
000060 0b c3 58 c0 eb 9d 1e 40 db 1d cc 3f 3e ec 05 40
       -3.3869045 2.4783885 1.5946611 2.092544
000070 bb 51 30 3e 22 39 13 40 d3 63 f7 bf b6 2c be bf
       0.17218678 2.300362 -1.9327339 -1.4857395
000080 32 99 cc bf 61 75 02 3e aa b2 8e 3f 23 6c 8b 3f
       -1.5984251 0.12740089 1.1148274 1.0892376
000090 62 f2 01 40 1d f5 14 bf 90 33 e2 3e 76 e5 0d c0
       2.0304189 -0.58186513 0.44179964 -2.2171302
0000a0 4b 5e f2 3e 1f 1a 31 c0 1f 53 17 40 08 60 f8 3f
       0.47337565 -2.7672193 2.3644483 1.9404306
0000b0 49 21 33 bf 0c 61 c4 3f 96 38 14 c0 c9 5f 19 c0
       -0.69972664 1.5342116 -2.3159537 -2.3964713
0000c0 04 63 40 bf 20 18 17 c0 8c be 08 40 de e0 22 40
       -0.75151086 -2.3608475 2.13663 2.5449748
0000d0 5f e8 d6 3f b0 72 cd bf 1f 2f 5e bf 2a 96 5e 3e
       1.6789664 -1.6050625 -0.8679065 0.2173697
0000e0 8d 89 d3 3f d0 df 4b be 1c fd ce be 19 0a e0 bf
       1.6526352 -0.19909596 -0.40427482 -1.7503082
0000f0 45 7c e9 3f 3c 57 66 bf 38 c9 ed 3e 70 c0 77 3f
       1.8241049 -0.8997686 0.4644258 0.9677801
000100 6e 3b b3 3f be 2a 13 3f 8c 80 22 3e 3f 63 a8 3f
       1.4002512 0.57487094 0.15869349 1.3155288
000110 8c 56 34 40 7d 0c e1 bf fe 51 86 3f 22 17 21 c0
       2.8177824 -1.7581936 1.0493772 -2.517037
000120 fe de 21 3f a9 77 86 3d 82 a4 f4 3d 4b 03 90 40
       0.63230884 0.06565792 0.1194544 4.500402
000130 24 36 49 3f 7c b9 2e c0 a1 3b a1 c0 b9 12 8f 3d
       0.7859824 -2.730071 -5.038529 0.06985993
000140 76 60 af 3f b5 71 32 c0 87 8a f4 bf 86 d2 65 bf
       1.3701313 -2.7881901 -1.9104775 -0.8977436
000150 7c 65 c0 be 31 3a 8c bf 1a f4 14 bf c5 a4 8b bf
       -0.37577426 -1.0955259 -0.5818497 -1.0909659
000160 e3 87 c8 3e be b3 ad 3f 19 c4 1c 3f 95 bc a8 3f
       0.39166173 1.3570478 0.6123672 1.3182551
000170 e1 d5 cf 3f aa ea f3 bf 5d 23 20 40 73 e4 8f bf
       1.6237146 -1.9055989 2.5021584 -1.1241592
000180 a1 b1 9c 3e d4 27 b4 40 8d 2b 99 bf 6e 9c 98 3d
       0.3060427 5.629862 -1.1966416 0.074517116
000190 b3 2c 6b 3f 9c ed 91 bf d2 f2 82 3f f9 9f 64 bf
       0.9186508 -1.1400638 1.0230353 -0.893066
0001a0 e4 f2 37 40 87 45 d8 bf 6d 5f ac bf 0d 5d b9 be
       2.8741999 -1.6896218 -1.3466622 -0.36203805
0001b0 58 e1 c9 3f 18 75 32 3f 4c 10 95 bf 02 34 c0 3f
       1.5771894 0.6970992 -1.1645598 1.5015872
0001c0 03 39 80 3f 57 b3 9f bf 05 79 28 3f 38 dd b4 3f
       1.0017399 -1.2476605 0.6580966 1.4130011
0001d0 e9 eb 37 3c 15 8b aa be 09 93 a7 bf 72 88 4a be
       0.011225679 -0.33309236 -1.3091747 -0.19778612
0001e0 93 93 28 3e 2a a9 ad be c5 42 af 3f 3f 99 5d be
       0.16462545 -0.33918124 1.3692251 -0.2164049
0001f0 ad 08 0b c0 6f cc 26 bf 49 40 2e bf f9 f6 76 40
       -2.1724045 -0.6515569 -0.6806684 3.858824
000200 ea fa 80 3e 85 34 74 bd e6 2f c5 bf bc 5b d6 3f
       0.25191432 -0.0596204 -1.5405242 1.6746745
000210 84 17 55 bf 51 49 fd bf c9 97 a1 3e 65 26 39 bf
       -0.83239007 -1.9787999 0.31561115 -0.7232421
000220 fb ba 9d bf 55 5e 1b 3d ec 6f 4f be aa bc 91 3f
       -1.2322687 0.03793176 -0.20257539 1.1385701
000230 2c a6 55 bf 47 35 e8 3f c9 37 29 c0 d9 65 fd bf
       -0.83456683 1.8141259 -2.6440299 -1.9796706
000240 da 86 42 3e 86 3d 8b bf 18 e4 81 be 09 c6 03 3e
       0.18996754 -1.087815 -0.25369334 0.12868513
000250 28 5a 45 bf 69 7c 01 c0 25 f1 cd bf 9b e2 6e bf
       -0.7709069 -2.0232184 -1.6089216 -0.9331452
000260 66 c1 18 c0 66 6c d1 3e 29 73 3c 3e 89 d4 9c 3f
       -2.386804 0.40903014 0.18403305 1.225236
000270 2d 00 5d bf 29 da b4 3f e7 da 8e 3f 6b 3f 38 bf
       -0.86328393 1.4129077 1.1160554 -0.7197177
000280 27 a0 4d 3f 8b 1b c5 bf c7 e4 b5 be e7 b4 8c bf
       0.803225 -1.539903 -0.35526106 -1.0992707
000290 43 39 ec 3e cb 07 d3 be 66 4b 89 3f 04 6f 1a c0
       0.46137437 -0.41216883 1.0726135 -2.4130259
0002a0 52 99 b1 bf af 11 44 3f f4 69 b0 3e f2 fa 4d be
       -1.3874915 0.76589483 0.34455836 -0.2011526
0002b0 65 65 0b 3e 45 10 8e 3f 8b 3e 41 be ad ef ee 3f
       0.13612898 1.1098715 -0.18871514 1.8666893
0002c0 4f de 02 be b0 90 fa 3e da 2e bf be a1 ee 82 3d
       -0.12780116 0.48938513 -0.37340432 0.06393171
0002d0 02 26 e8 3e 04 70 82 3f 37 0c 7c be e4 1e 15 40
       0.45341498 1.0190434 -0.24614035 2.3300104
0002e0 8e 00 84 3f 59 46 0f bd bb bd f1 be b0 7b 29 3f
       1.0312669 -0.034979198 -0.47215065 0.6620436
0002f0 ca 65 78 be 06 61 f3 bf 89 fd b3 bf de 83 cd bf
       -0.2425758 -1.9013984 -1.4061748 -1.6055868
000300 b5 6b c4 bd 4f 80 eb be cb 94 a4 3f 5f a3 4b 3f
       -0.09590856 -0.4599633 1.2857908 0.7954616
000310 49 e9 3d bf cf da 32 be 47 9c d6 bf 49 23 73 c0
       -0.7418409 -0.17466281 -1.6766442 -3.7990286
000320 ba 46 8c 3f 57 a9 8a be f6 8b 9a 3e 4d d4 34 40
       1.0959084 -0.2708232 0.30184907 2.8254578
000330 81 c8 d0 3f b9 ea bf bf 96 b4 a7 be 0c 51 89 3e
       1.6311189 -1.4993507 -0.32754964 0.26819646
000340 de 0a 96 3f 18 9e 6f c0 d9 f8 b6 bf ca bb af 3f
       1.1722066 -3.7440243 -1.4294692 1.3729184
000350 63 3e 97 3f f5 28 50 40 0b 7f d6 3e 09 ed c3 be
       1.1815914 3.2524998 0.418938 -0.3826678
000360 98 18 95 3d aa d8 dd bf 72 96 2c c0 39 ac b2 be
       0.072800815 -1.7331746 -2.6966825 -0.3489702
000370 64 63 99 3f 97 88 c7 bf a2 cc 99 bd 25 dd 1a 3f
       1.1983457 -1.5588559 -0.07509734 0.6049369
000380 e9 62 fa bf 46 84 16 3e 1a 1f 88 3e 52 ea 61 bf
       -1.9561435 0.14698896 0.2658623 -0.8824817
000390 ab 6a 1c 3f 38 d6 bc bf d2 5e bb be 16 ce e5 3f
       0.6110026 -1.4752874 -0.3659578 1.7953517
0003a0 d6 3e 47 40 46 c0 8b 3f 54 4c 88 bf e4 0b 0f c0
       3.1132102 1.0918052 -1.0648293 -2.2351007
0003b0 a4 e4 35 bf bb 37 e4 3d 09 b2 53 bf c9 b7 92 c0
       -0.71052 0.11143442 -0.82693535 -4.5849347
0003c0 9d bc 9f 3e fd 16 94 3f d5 d2 54 be 3a a0 35 bf
       0.31198588 1.1569515 -0.20783551 -0.7094761
0003d0 ad 7e 5d 3f 88 92 07 c0 a0 a5 05 40 6b ae 0f 40
       0.86521417 -2.1183186 2.088234 2.2450206
0003e0 b5 df 26 3e 82 fb ad 3e d3 65 0f 3f da 91 11 bf
       0.16296275 0.33980948 0.56014746 -0.56863177
0003f0 9b 73 ee 3f c1 d8 a3 3f 73 f3 14 3f 31 dd 15 3f
       1.862903 1.2800523 0.58183974 0.58540636

value_network.4.bias f4 [5]
000000 e7 54 9d bf bd 8c 9d be 2a 17 2c 40 22 23 ce 3f
       -1.2291535 -0.30771437 2.6889138 1.6104472
000010 40 e7 3b c1
       -11.7439575

value_network.7.weight f4 [100, 30]
000000 a3 e2 1a bb e6 89 65 3c f2 3f 68 bb 35 47 19 bc
       -0.0023633621 0.014009928 -0.0035438505 -0.009355356
000010 b4 0b 06 bd a7 c8 c1 bb 17 45 dc 3b 51 9e 0b 3c
       -0.032726005 -0.005913812 0.0067221033 0.008521632
000020 4f 10 d8 bb ec 27 71 3d bd a9 00 3b 23 88 4d bc
       -0.006593741 0.058875963 0.0019632422 -0.012544665
000030 1c 6b 90 ba 67 9e 8e 3a 60 f2 8c 3d f6 2d 25 bb
       -0.0011018249 0.0010880948 0.06882167 -0.0025204397
000040 63 06 a0 ba 1f 55 ca 3b e8 65 b3 3b 6e c9 ad 3d
       -0.0012208935 0.006174698 0.0054747947 0.08485685
000050 8e 2d 51 3c e1 02 ab bb 46 97 a9 bb db 09 19 bb
       0.012767209 -0.005218849 -0.005175504 -0.0023351822
000060 02 ed b6 3c da a0 f0 bb 13 da 96 38 49 86 cc 3b
       0.022329811 -0.0073433938 7.193177e-05 0.006241594
000070 03 ec 32 b9 03 be 98 3d f5 b4 4f 3c 84 90 3b 3d
       -0.00017063324 0.07458117 0.012677421 0.045792118
000080 74 4f 3d b9 08 d0 78 3c 4a 9a 73 3a 36 3d 9e 3a
       -0.00018054043 0.015186317 0.0009292705 0.0012072686
000090 92 69 1a bb 29 96 a8 3a 52 a7 f1 ba 5c ee 2c 3c
       -0.002356146 0.0012862134 -0.0018436706 0.010554876
0000a0 2e 30 b7 3b 06 7f b7 3b 3c ef 91 bc 19 d3 65 3c
       0.0055904603 0.005599859 -0.017814271 0.01402738
0000b0 6f e2 34 3d 20 3a 64 3c be 11 82 bb 88 04 e3 bb
       0.044161256 0.013929874 -0.0039694 -0.0069280304
0000c0 bd ea f2 3b cd 83 ad 3c 84 0f 04 3c c6 be 17 bc
       0.007413237 0.021181012 0.00806034 -0.0092617925
0000d0 1f e6 05 bc 1e 8b 2a 38 b6 0d c5 3c 79 58 bb bb
       -0.008172541 4.066072e-05 0.02405439 -0.005717334
0000e0 bb be 56 ba 04 30 53 ba 17 93 4c 3b 25 f5 2e bc
       -0.0008191873 -0.0008056166 0.0031215602 -0.010678564
0000f0 4a f0 07 bb 01 ed a5 bc dc 54 33 b9 0c 5b 01 bc
       -0.0020742589 -0.020254614 -0.00017102383 -0.007895242
000100 25 21 06 3b 74 9d 50 bb bf 8c 31 3b ef ee 21 3b
       0.0020466533 -0.003183213 0.0027091948 0.0024709066
000110 a2 c7 20 3b 30 6b 17 bc 3c a1 5c 3b 8d ca 67 bb
       0.0024533053 -0.009241864 0.003366544 -0.0035368532
000120 55 8a 5f 3b fd 63 9a bb 97 73 58 bc be 15 66 3a
       0.0034109552 -0.0047116266 -0.0132111525 0.00087770435
000130 b6 52 3c 3b 38 e7 a8 bb 61 b4 16 3a 8f ba 5d bb
       0.0028735823 -0.0051545165 0.00057489245 -0.0033833121
000140 9b 87 59 ba 16 a0 4b 3a 21 c6 d0 3b 8e ac 81 bb
       -0.00082981 0.000776769 0.006371275 -0.0039573377
000150 34 01 2e bc 5b 3b da ba a8 97 d0 bb dd 11 2f 3b
       -0.010620404 -0.0016649769 -0.006365735 0.0026713528
000160 c1 c1 88 ba 3e dc e2 bb f8 ee 41 3c 70 27 af 3c
       -0.001043372 -0.0069232276 0.01183676 0.02138111
000170 4a b4 3c 3b 43 44 6f 3b 6a 0c 97 bc 0c 5f 56 3b
       0.0028793984 0.0036509193 -0.018438537 0.003271046
000180 b7 4a 46 bb 54 9c 26 3b 21 b7 9b bb cf e8 41 3d
       -0.0030256936 0.0025422769 -0.0047520553 0.047341164
000190 a5 4c f9 3b ea 85 b5 b9 22 8a 27 bc 62 95 01 ba
       0.0076080137 -0.00034622784 -0.0102258045 -0.0004943219
0001a0 1d ea aa 3b 87 ab af 3b 47 eb da bb 35 ba e4 3b
       0.0052158968 0.005361024 -0.0066808793 0.0069802054
0001b0 98 5b 1c 3c b3 1b 6d 3d 7d 95 24 3c 98 5e fa bb
       0.009543322 0.057887744 0.010045406 -0.007640671
0001c0 22 b1 a2 ba 08 a4 02 bb cb 54 a0 3c 19 8f d1 bb
       -0.0012412409 -0.0019934196 0.019571682 -0.0063952324
0001d0 75 fd 59 bb 32 9e 08 bb ff 76 27 3c ad da b1 bb
       -0.0033262644 -0.0020846245 0.010221242 -0.0054276795
0001e0 fd 80 25 bb 3b 7f 99 bb d4 02 c4 3a a7 59 52 3a
       -0.0025253885 -0.0046843565 0.0014954456 0.00080242235
0001f0 30 51 6c bb 2f 40 8e bb 5e 36 26 3b 4d 1b 63 3b
       -0.0036059134 -0.0043411474 0.0025361995 0.0034653724
000200 06 a7 d9 3a 3c 45 87 3c 4b 3c cf bb 5c e5 27 bb
       0.0016605563 0.016512506 -0.006324326 -0.0025618887
000210 57 2d 00 3c 6c 09 66 bb bc a0 34 bb 96 b0 8b bb
       0.00782331 -0.003510083 -0.0027561625 -0.004262994
000220 20 f2 b2 3a 29 8a 65 3b 2a 79 2f bb 96 57 bb 3a
       0.0013652481 0.0035024977 -0.00267751 0.001429307
000230 2d ca d7 ba 1a 71 33 3b 18 7b 1e bb d6 0c 95 3a
       -0.0016463451 0.0027380646 -0.0024182256 0.0011371623
000240 58 0f 80 bb 28 ce 8c 3b 06 1c 1c ba 71 1c 01 bb
       -0.003908079 0.0042970367 -0.00059551036 -0.001970079
000250 a3 36 68 bb 61 93 1b 3c b1 8b 05 bc 76 10 6b bc
       -0.0035432957 0.009495587 -0.008150981 -0.014347186
000260 35 eb 8c ba 91 73 57 bc fb be 95 bb f7 98 3b bc
       -0.001075125 -0.013150112 -0.004569886 -0.011450044
000270 b3 72 88 3b 8b 42 5d ba 74 ad ef bb 7f ce 31 3b
       0.004164064 -0.00084403966 -0.0073143784 0.0027131138
000280 9c 89 1c 3c bd 28 20 39 f5 c4 28 3a 4b 16 9b 3b
       0.009554293 0.00015273965 0.000643804 0.004732882
000290 3f 34 86 3c 4d 44 b8 3b cb 06 76 bb 9a 34 63 ba
       0.016382335 0.0056233765 -0.003754067 -0.0008667201
0002a0 45 81 4e bb 36 d9 d3 3b 97 0e 5d 3b 42 83 f6 ba
       -0.0031510156 0.0064651025 0.003373062 -0.0018807428
0002b0 dc fe 0b 3b dc b3 29 bb eb 09 31 bc af 60 40 bc
       0.0021361625 -0.0025894558 -0.010805587 -0.011741801
0002c0 7f 49 e9 ba 69 07 17 3c 58 f7 89 3a bd 3b 30 3d
       -0.0017798393 0.009218075 0.0010525985 0.04302572
0002d0 42 21 91 3a d4 68 4b 3c 0e 0c cb bb 35 52 32 bc
       0.0011072534 0.01241513 -0.0061965054 -0.0108838575
0002e0 e7 fa 3e bc 65 72 9d 3b 67 e9 43 39 b4 f5 d6 b7
       -0.0116564995 0.0048048967 0.00018683598 -2.5625202e-05
0002f0 cf ae 83 bb f6 44 0e bc 22 fa 12 3c 1d 16 52 38
       -0.0040186415 -0.008683434 0.008970769 5.0088496e-05
000300 14 c7 88 bc 65 6a 1a 3c 6f 07 4b 3d e0 64 0a 3c
       -0.01669649 0.0094247805 0.049567636 0.008446902
000310 30 ef 66 b9 59 9c 1b bb 19 58 a4 3b 78 ba 2d 3d
       -0.00022023614 -0.0023744314 0.005015385 0.04241416
000320 40 9f eb 3b 2d 82 03 bc c4 b8 98 3a 9f 71 4d bb
       0.007190615 -0.008026642 0.0011651744 -0.003134824
000330 46 e6 e3 3c 43 68 0c bc df ab b6 3b 31 c7 04 3c
       0.027819764 -0.00856978 0.005574688 0.008104132
000340 83 ff ab 3b 54 d7 3e 3c 52 df a0 ba 9c 47 83 3d
       0.005248965 0.011648018 -0.0012273586 0.06410143
000350 21 17 29 bc 17 7e de 3a 71 bb 49 bd 2f c7 86 bc
       -0.010320456 0.0016974834 -0.049251024 -0.0164524
000360 62 a0 27 3c 21 49 83 3c 44 57 f3 bb dc 8a cc 3d
       0.010231109 0.016026082 -0.0074261744 0.09987423
000370 5b cc 5f bc 1c e0 e2 bb 9d f4 a1 bb 27 c8 a8 3c
       -0.013659562 -0.0069236886 -0.0049424903 0.020603253
000380 7b a5 2c 3e 9f 5e e7 3a 45 e6 45 3a 9c 02 1c 3c
       0.16860001 0.0017652101 0.00075492664 0.0095221065
000390 7c 1e ff 3b 16 27 f4 3d 51 3d 16 3b 92 ef 41 bc
       0.0077856164 0.119215176 0.002292473 -0.011836903
0003a0 d2 f0 09 bc ae 39 20 3c 97 2e 8c 3d 44 bc c7 bb
       -0.008419232 0.009779377 0.06844824 -0.006095441
0003b0 35 8c 74 3c af ff 3d 3b 35 68 bf bb 50 1d 09 3e
       0.014926006 0.002899151 -0.00584128 0.13390088
0003c0 1f cf f1 bb 57 c5 57 bd c3 ae 6e 38 9e 74 55 bc
       -0.007379427 -0.052678432 5.690638e-05 -0.013028292
0003d0 bb 8a 14 3d 49 e8 53 3c 05 d2 dc bb ea 19 e9 bb
       0.036265116 0.012933799 -0.0067389035 -0.007113685
0003e0 81 3f 2b 3c ef a3 c9 bd 56 ea 80 3b 73 61 d8 3b
       0.010452152 -0.09845721 0.003934185 0.0066034137
0003f0 30 9d 07 bb 5a ff 06 bc f1 7e be bd d6 54 5f bb
       -0.0020693056 -0.0082395915 -0.09301556 -0.0034077666

value_network.7.bias f4 [100]
000000 c0 87 92 3e 91 af e9 3d b0 c4 46 bd 56 22 01 3e
       0.28619194 0.1141044 -0.04852742 0.12610754
000010 10 ae 44 3c 51 67 56 3d fa bf f9 3d 6f fb 0e 3f
       0.01200439 0.052344624 0.1219482 0.5585241
000020 1e 8e c4 be eb 77 52 40 5d a0 1d bd 94 3f 41 be
       -0.38389677 3.2885692 -0.038483012 -0.1887191
000030 dd 49 15 3e 3b ab 8f be 54 32 b4 3d 1c ab a8 3e
       0.14578958 -0.28060326 0.08798662 0.32943046
000040 31 6d 6c 3c 6b 2e 4b 3e c3 6c 43 be 0c c0 1f bf
       0.01443033 0.19841926 -0.19084458 -0.62402415
000050 39 0e 27 3e ee 0c 53 3d b1 00 82 bd 05 b9 f1 3e
       0.1631402 0.051526003 -0.06347788 0.4721147
000060 db d4 dc 3e a4 f9 26 3e 42 9e b7 be 50 75 dd be
       0.43131146 0.16306168 -0.3586293 -0.43253565
000070 16 b6 c8 3e 67 17 24 3f cb 3b 0a bf 88 dd e2 bd
       0.3920142 0.6409821 -0.53997487 -0.1107741
000080 0f 75 da bf 7c 22 99 3f cd 8f 0f 3f 4d 3f dc be
       -1.7066973 1.1963649 0.560788 -0.43017045
000090 51 a7 9e bc 02 6d 92 3e 32 d0 7a c0 38 9f 09 c0
       -0.019366892 0.2859879 -3.9189572 -2.150343
0000a0 f2 8a 16 3f 95 6e 83 3e a2 df dc 40 41 a5 34 3e
       0.58805764 0.25670305 6.902299 0.17641164
0000b0 5c 91 b2 3d 08 39 17 3e 11 26 6b be 2f 9f 7b 3e
       0.08719131 0.1476785 -0.2296374 0.24572442
0000c0 5e 4a 39 bf b9 67 1a be 63 4b 8a 3e e1 3d b3 3e
       -0.723791 -0.1507863 0.2701064 0.35008147
0000d0 b9 21 da 3e d4 02 f1 be 95 6d 60 be bd ac 1a be
       0.42603853 -0.4707247 -0.21916802 -0.15104957
0000e0 cf a6 81 be 01 49 10 be 70 06 da 3d 2e 0a 6d bb
       -0.25322577 -0.14090349 0.10645759 -0.0036169398
0000f0 91 80 7c 3f 22 0d 5a bd 84 e8 83 be 20 20 dc 3c
       0.98633677 -0.05323518 -0.25763333 0.026870787
000100 a7 bb 8f 3d 69 20 cd 3f d4 de 5d be c5 15 9b c0
       0.07018214 1.6025516 -0.21667033 -4.8464074
000110 2c a3 23 40 39 40 4c 3f 7e 8d ca bd 08 7f e5 c0
       2.5568342 0.79785496 -0.09890269 -7.1717567
000120 e6 67 1e 3e 63 51 f5 bd 8a 99 1e bc 0e 25 b1 bd
       0.15469322 -0.11978414 -0.009680161 -0.08649646
000130 89 7e 77 3e 4e 1b a0 3e c1 18 96 40 9f 38 6d 3f
       0.24169363 0.31270832 4.6905217 0.9266452
000140 d0 56 21 be ad 40 81 3e 2e 9f de bc 34 ed c4 bd
       -0.15755773 0.25244656 -0.027175512 -0.096155554
000150 37 f7 36 3e 59 6a 37 be 48 21 a8 be bc 83 4b be
       0.17867742 -0.17911662 -0.32837892 -0.19874471
000160 07 52 67 be 8f 39 8a be 7f 0f 33 be 63 7f 24 3e
       -0.22589885 -0.2699704 -0.1748638 0.16064219
000170 03 7e 85 40 69 6e 00 3f 25 97 07 40 00 04 b0 bd
       4.1716323 0.5016847 2.1186001 -0.08594513
000180 e6 49 d7 3c 77 c1 91 be ea bb 6e 3d a1 91 4a c0
       0.026280355 -0.28467914 0.058284678 -3.1651385

value_network.9.weight f4 [50, 100]
000000 74 10 96 bb aa 96 02 3c cb 9d b2 ba 3a ab 97 3b
       -0.004579598 0.007970491 -0.0013627348 0.004628566
000010 ff be ad 3b 68 12 48 bb c4 b7 c2 3b be 5e 72 bc
       0.0053023095 -0.003052855 0.0059423167 -0.014793096
000020 fb cd 1b bb 76 74 13 3d a5 a7 49 bc 34 6b 22 bb
       -0.0023773897 0.035999738 -0.012308036 -0.0024783136
000030 c9 0d cf 3a a1 cf 03 3c 48 cb 87 bb 9f 41 33 bb
       0.0015796955 0.008045108 -0.004144106 -0.0027352346
000040 b7 49 4d 3c 0c 63 6a 3b 7f 92 06 bc 3c 29 14 3c
       0.012529782 0.0035764603 -0.008213638 0.009043034
000050 98 77 b7 bb 0f 65 3f b8 c3 46 a7 bb fc fd 04 bc
       -0.0055989735 -4.5632067e-05 -0.005104871 -0.008117195
000060 9c 14 02 bb 17 5a 1f 3c dd 5d f9 3b 13 85 dd 3a
       -0.001984871 0.009726069 0.0076100663 0.0016900621
000070 51 c7 ec ba f4 b5 09 3b 5d 31 da 3a 57 fc 9e bb
       -0.0018064772 0.0021012994 0.0016646791 -0.0048518586
000080 77 30 f5 bb bc 11 17 3b 99 b6 dc bb 8b b8 f1 ba
       -0.007482584 0.0023051342 -0.0067356345 -0.0018441839
000090 39 e8 3d bb c8 2b 92 ba f5 08 db 3c 33 4d 90 bc
       -0.0028977527 -0.0011151964 0.02673767 -0.017614936
0000a0 fa d9 b7 bb ae 57 47 bc 40 bf e9 bc d6 f3 0e 3c
       -0.0056107016 -0.012166901 -0.028533578 0.008725127
0000b0 73 3c 23 3b 83 d1 47 3b d5 a3 6f 3c 1e be 8f bb
       0.0024907857 0.003048987 0.014626463 -0.0043866774
0000c0 c0 eb 93 3c 1f 57 7a 3b b6 e5 2c bc b5 60 4d bb
       0.01805675 0.00381989 -0.010552814 -0.003133816
0000d0 ef e9 03 b9 ec f4 4c bb 4c 08 93 ba f8 5f 9e ba
       -0.0001258028 -0.0031273915 -0.0011217683 -0.0012083044
0000e0 22 fa 3f 3b 29 90 27 3c 31 36 81 bb 20 8d a6 bb
       0.0029293378 0.010227242 -0.0039432277 -0.0050827414
0000f0 e0 55 35 3c f6 86 9b 3b 37 e7 ce 3b da c7 ec bb
       0.0110678375 0.004746313 0.006314184 -0.0072259726
000100 22 ee 3d 3b aa a7 17 bc e6 69 2b 3b 0e af 23 3c
       0.002898105 -0.009256283 0.002615565 0.009990467
000110 ca 53 3f bc ab 8f 22 3b 35 50 67 bb 5b 3f 9d 3c
       -0.011677692 0.002480487 -0.003529561 0.01919525
000120 e6 fd d5 ba ba eb 84 bb 79 6f ae ba b5 55 22 bb
       -0.0016326278 -0.004056421 -0.0013308368 -0.0024770324
000130 6f e5 bf 3b c3 d5 6f 3b eb e6 d7 bb bc 41 2d bc
       0.005856208 0.0036595918 -0.006588807 -0.010574754
000140 c6 39 8d 3b c6 ad e6 bb b9 d0 43 3c c6 4a 3b 3c
       0.0043098656 -0.0070397584 0.011951619 0.011431402
000150 a3 80 5d b9 b9 6f b0 3b a3 c6 98 bb f9 10 0e bb
       -0.00021124123 0.005384412 -0.004662351 -0.0021677597
000160 27 cb ab 3b 8d 29 83 b9 ba 58 55 3c 80 6d 0d bc
       0.0052427235 -0.00025017225 0.013021642 -0.008632064
000170 08 14 88 3b 84 9e a1 bb 87 64 2b 3c e6 7c 1b 3b
       0.0041527785 -0.0049322266 0.010460979 0.0023725568
000180 25 64 f2 3b 50 3c f5 39 a0 b9 83 3a a8 0e a0 bb
       0.007397192 0.00046774978 0.0010049827 -0.0048845597
000190 62 8e 0c bb 88 e7 02 bc 95 d5 2e 3b 39 fc a1 3a
       -0.0021447171 -0.007989772 0.0026677598 0.0012358493
0001a0 53 6f 49 bb 6f 05 58 3b 60 f2 e6 bb c8 9d 5d 39
       -0.003073652 0.0032962223 -0.0070479363 0.0002113498
0001b0 5a ba 21 bb 0d cf c3 3b 64 e1 34 3b 13 6b 9a 3b
       -0.0024677725 0.00597561 0.0027600164 0.0047124713
0001c0 2f d0 36 3a ba e8 29 bc 88 dc 16 3c 83 09 aa bb
       0.0006973771 -0.010370428 0.009207852 -0.005189122
0001d0 ee 27 7c bb d5 7a 09 3b 10 f6 99 bb d4 a4 c4 39
       -0.0038475948 0.0020977755 -0.0046985224 0.0003750684
0001e0 08 27 3b 3c 65 3c 56 3c 33 2e 10 bc 15 d8 b9 bb
       0.01142288 0.013075923 -0.008800077 -0.005671511
0001f0 d4 6a 2b 3b 30 d5 17 bb 67 ab 07 3c 93 01 07 bc
       0.0026156204 -0.002316784 0.008280612 -0.008240121
000200 df 28 8d bb 69 87 87 3b b7 6a af 3b b0 ea 20 3c
       -0.0043078507 0.004136015 0.0053532976 0.009821579
000210 55 71 60 3a 94 ba 98 bb 6d f4 0f bb 2a 89 d6 3b
       0.00085618097 -0.0046609137 -0.0021965757 0.006547113
000220 b1 79 36 ba 04 19 f7 bb e7 75 99 3b fd c6 b6 bb
       -0.00069608825 -0.007540824 0.0046832445 -0.0055779205
000230 11 16 dd bb c2 0f b1 ba 37 34 64 bc 07 28 2c bb
       -0.0067470153 -0.0013508725 -0.013928465 -0.0026268975
000240 06 66 00 3c e5 b8 1f 3a 65 c9 76 bb eb 49 7c bb
       0.007836824 0.000609292 -0.0037656662 -0.0038496207
000250 4e 0e 00 b9 e6 e0 10 bc 48 64 22 bb be f0 b7 3b
       -0.0001221236 -0.0088426825 -0.002477901 0.0056134155
000260 43 52 f2 39 25 c7 9d 3b 1e fe 1c bb 2f cb 67 bb
       0.00046219127 0.0048149996 -0.0023955177 -0.003536891
000270 30 88 2f bc e9 3f 18 bc 82 f3 8a 3c fd 94 88 3c
       -0.010713622 -0.009292581 0.016961817 0.016672606
000280 fe 81 90 3a 81 f1 56 3b b3 f8 88 3b 6c 8d f2 3b
       0.0011025069 0.0032797756 0.004180038 0.0074021127
000290 d7 a4 38 37 86 f2 3a 3b 71 9b 0d bb 96 fa 7a bb
       1.1005634e-05 0.0028525903 -0.0021607543 -0.0038296334
0002a0 b4 d8 92 39 81 44 87 bb 17 01 2e bc 0f 3e 0a 3c
       0.00028008746 -0.0041280393 -0.010620377 0.0084376475
0002b0 a7 ca 52 bb 2e 23 1a bc 16 b0 83 3c f6 62 d9 bb
       -0.0032164247 -0.009407802 0.016075175 -0.0066341115
0002c0 66 95 06 bb 11 59 db bb 9a 0f 20 bc 5f 1d 55 b9
       -0.0020535826 -0.006693967 -0.009769345 -0.00020324205
0002d0 f7 dc ed 3b 4b 42 c0 bb 89 ee 04 bc d5 22 9b 3a
       0.007259007 -0.0058672777 -0.008113512 0.0011835942
0002e0 7c 43 ff bb 6b 15 11 b9 a5 f8 84 bb 56 a1 25 3a
       -0.007790027 -0.00013836256 -0.004057961 0.00063182914
0002f0 d6 32 84 bb 61 d8 6d 3c 50 b0 15 ba 3d dd 1d bc
       -0.0040343804 0.014516921 -0.00057101715 -0.009635267
000300 db a0 04 3b 68 3d 91 3b c8 f8 94 3b 4f 41 a8 3b
       0.002023748 0.004432369 0.0045462586 0.0051347385
000310 0c d8 d7 3a 93 20 ad ba 39 41 8d 3b 9a 7e e8 bb
       0.0016467585 -0.001320856 0.0043107537 -0.00709517
000320 03 b6 71 3b 7e 14 8a 3a e4 a7 cc b9 cc 05 8f b9
       0.003688217 0.0010534672 -0.00039035 -0.00027279404
000330 53 ed 90 bb c9 ea a6 ba 95 df 81 3b 38 9e d5 3b
       -0.0044228225 -0.0012734766 0.0039634206 0.0065191053
000340 d2 3f ae b8 4f b1 07 bd b9 fc 36 bc 49 20 9f bb
       -8.308854e-05 -0.03312808 -0.011168652 -0.0048561436
000350 f7 9e c4 3b a8 ec 48 bc 95 7e 91 3a 63 71 d1 3a
       0.0060003954 -0.0122634545 0.0011100346 0.0015979226
000360 25 8c e4 3b 78 c6 82 bb 7d 3e 58 3b 27 66 b0 bc
       0.0069747143 -0.0039909445 0.003299623 -0.021533085
000370 64 5a 43 bc c7 e4 1e bb 62 39 ce ba 76 44 c9 3b
       -0.011923406 -0.0024245249 -0.0015733654 0.0061421944
000380 75 87 24 3a 08 c7 45 bc d0 c4 15 3b 1e 58 a5 3b
       0.0006276288 -0.0120713785 0.0022852905 0.005045905
000390 37 e2 88 bb d0 20 14 3a 6d 7d cc 3b 8a 26 b8 bb
       -0.0041773575 0.00056506414 0.006240538 -0.0056198286
0003a0 e8 f0 ed 3a 42 11 e2 bb f3 5c 39 3b c0 5a ad 3b
       0.0018153461 -0.00689903 0.0028284162 0.0052903593
0003b0 8e 8d 83 bb b8 fd fd 3b 1f a4 ce bc 26 a0 44 3c
       -0.0040146774 0.007751193 -0.025224743 0.012001073
0003c0 ec c4 56 bb c5 68 ae b9 d3 c3 11 3d 71 58 91 3b
       -0.0032771183 -0.00033265926 0.035587143 0.004435592
0003d0 01 fe 83 3b c7 f8 08 bc 35 8d e8 bb 4f f5 f6 b9
       0.0040280824 -0.008360094 -0.0070969113 -0.00047103546
0003e0 fd c1 c1 bb 59 17 fe 3b 13 a6 f9 3b 3e 7b 1c 3b
       -0.005913018 0.007754248 0.0076186745 0.002387717
0003f0 c9 de 09 3c 4f 52 7b bb 1d 2a 72 3a 0d e4 f6 3b
       0.0084149325 -0.003834862 0.0009237843 0.00753451

value_network.9.bias f4 [50]
000000 5e f4 5e bc 3f b2 bb 3a ed b8 02 bc ec c4 8b bc
       -0.013608066 0.0014320089 -0.00797866 -0.017061673
000010 d0 38 ca bb 5e 3b f2 bc 43 31 c3 3d f6 30 ea 3c
       -0.0061713234 -0.029569324 0.0953088 0.0285878
000020 60 9f 85 bc 57 bd c0 bb 07 0b 60 3c 80 a8 5d 3c
       -0.016311347 -0.005881946 0.013674504 0.013528943
000030 82 b9 b5 3b a5 55 0d 3f 60 be 5b bc bb c2 f6 bc
       0.005545796 0.5520881 -0.013412088 -0.030122152
000040 dc 62 01 bb b2 b2 7a 3c db 80 48 3b 62 98 3c 3c
       -0.0019742763 0.015301393 0.0030594382 0.01151094
000050 78 fe 6d bb 8c 97 ef 3c e6 b8 05 3e 65 8a d9 3b
       -0.0036315005 0.029247068 0.13058814 0.0066388124
000060 37 49 cb 3c d0 49 84 3b 39 e6 2a bb 9f 58 a3 3c
       0.024815185 0.0040371194 -0.0026077165 0.019939719
000070 be f9 27 b7 12 ad 1e bc 2c 0b f3 3d d5 c0 3d bc
       -1.0012123e-05 -0.009684818 0.11867365 -0.011581619
000080 97 8a b8 bf 52 eb de bb 81 d4 2d 3c 78 bf b6 3a
       -1.4417294 -0.0068029547 0.010609747 0.001394256
000090 30 5b 27 bc 93 7a 51 c0 55 94 db 3c 4b af 4a 3c
       -0.010214612 -3.2731063 0.026804129 0.012370895
0000a0 e4 05 89 3b 6b 1f 04 3b 00 f7 3d bc e2 5a 8d bb
       0.0041816104 0.0020160328 -0.011594534 -0.0043138126
0000b0 23 bd da 3b 15 68 f7 ba 87 30 13 3c 5d 4e 10 3e
       0.006675379 -0.0018875623 0.008983738 0.14092393
0000c0 e3 2a 33 bb fb 4d 44 bc
       -0.0027338795 -0.011981483

value_network.11.weight f4 [1, 50]
000000 4a 35 0a 3c 03 e8 10 3b d4 e0 fd bb a2 e8 d6 ba
       0.008435557 0.0022110946 -0.007747749 -0.0016396234
000010 a0 99 91 3b 03 d0 d5 3b a7 cd 0a bc d3 ca fe 3b
       0.0044433624 0.006525041 -0.008471883 0.0077756434
000020 a6 9b 87 b9 d0 4b 00 bc 51 07 01 bc a1 8e 0d bb
       -0.00025865174 -0.007830575 -0.0078752795 -0.0021599906
000030 8d 52 b1 bb 45 ab f2 3b f5 fa 97 3b 33 ea b0 3b
       -0.005411452 0.007405671 0.0046380707 0.0053990125
000040 82 28 1e 3b 6e bb 54 3b f6 d7 63 3b cc 5e ac 3a
       0.0024133031 0.003246035 0.0034766174 0.001315081
000050 7f 76 82 3b 08 11 cb bb dc b8 8f 3c 03 68 c0 bb
       0.003981411 -0.0061970986 0.017544203 -0.005871774
000060 51 08 1b 3c 8e e1 32 3a c1 d9 8f 3b 88 96 5f bc
       0.009462432 0.00068237714 0.004389972 -0.013646729
000070 1c 34 e1 ba e8 74 d3 ba f8 f4 85 bd fa ee 86 3a
       -0.0017181667 -0.0016132863 -0.06540865 0.0010294609
000080 41 4b cc 3d 05 b6 4a 3b 9b 8a a1 bb 25 31 51 bb
       0.09975291 0.0030931246 -0.004929853 -0.0031920162
000090 71 1e 35 3c 2c 2c ac 3e 41 c7 18 bb c3 ac bc bb
       0.011054621 0.3362745 -0.0023312124 -0.0057578995
0000a0 3f 10 cb 3b 0c 14 23 39 ac 39 83 b9 c8 e1 73 bb
       0.006197005 0.0001555236 -0.00025029236 -0.0037213434
0000b0 3f a7 69 3b 1b 64 dc 3b aa 0c 3e bb 0a d4 4f bd
       0.0035652665 0.0067258007 -0.0028999248 -0.050739326
0000c0 9c 23 2e ba 81 05 29 3c
       -0.00066428795 0.010316254
