data/output/resumed_rl_model2.pth (torch_old, 80171 bytes, 11 tensors)

value_network.0.weight f4 [100, 6]
2.2648764 5.659009 -0.76393414 2.8866925 0.7323188 -1.694716 1.6520303 3.3718812
-0.27039698 -0.72980255 0.5591146 2.074556 -2.2931292 1.2955319 -3.864196 0.10095665
-0.38297933 3.2057571 1.11269 5.48536 0.68077725 0.217363 0.30351746 0.22000188
0.23699658 -4.503775 2.2690852 1.8713036 0.12575752 1.1663009 4.0976024 4.7772846
-1.9313462 -0.41672277 1.6098678 3.941275 -6.1150627 0.5443922 -0.17257228 -1.2794106
0.11947353 2.561742 7.3434873 1.8806148 -5.2464385 -3.2992632 -1.9932522 -6.701936
0.35316357 -0.07664824 -0.18263645 4.0863547 0.23703782 -0.5850867 0.13587336 -2.6229343
-2.522367 -0.7446163 0.022395283 -1.5351249 10.718877 1.451368 -1.5630916 -0.028414197
-1.5287125 -9.97274 -2.25992 -5.182424 0.07732882 0.6887769 -0.5151243 0.9807519
-10.202788 2.4295194 -0.41659477 -1.9107391 -1.816505 -8.51539 -6.1210423 2.696663
0.06779831 -3.0046728 0.5962452 -4.0184145 -5.5135746 2.50542 3.13795 -3.5973806
1.9798896 4.76768 12.054353 -2.445124 -2.2858913 0.65045124 2.2723672 10.293043
-9.682574 -0.7147129 2.5628595 0.76373166 -2.1585274 -8.221526 1.9980766 -3.8452265
-0.8716379 4.0584183 0.32175064 9.760783 5.121752 1.3832502 0.2368014 -2.998538
0.34879625 1.7525709 2.6885545 -3.6341698 -0.3648104 -0.4460265 0.337008 -3.613195
0.26313895 -5.7030783 1.4078904 -1.3016326 1.7000434 4.4239326 0.9737106 -5.109639
-0.14432459 2.3077893 0.67457527 3.9843068 3.6351895 -2.7966151 1.0483147 1.8257676
0.91252 -0.51135 -4.413861 6.1623745 1.2075572 -3.1983027 -3.5515778 -6.1239576
7.2824783 0.97573763 -4.0308027 -2.6873586 -1.6779652 -4.0122046 0.3968065 0.39184338
-1.3266972 -3.9108822 -2.4702358 -0.52101636 -5.136272 3.294379 -2.0105705 -0.050693937
-1.153171 -4.4459615 2.6529129 -5.423702 -0.6205534 0.9596888 1.5201735 4.4088316
1.5830392 -1.6333395 0.5403906 0.8374164 -0.4853041 -6.1986675 1.170389 -1.3194565
-1.9727985 4.229635 2.2957828 3.7788665 4.6585765 1.6197128 -2.7651005 -2.0810466
1.0092472 2.3502898 8.328262 3.1579673 -2.5526192 -2.0392861 1.6323476 6.745719
-1.0699497 0.5473778 0.98573405 -2.7888384 0.3035135 -3.109754 1.2813061 3.8142357
-0.82456106 -1.435058 0.4251329 1.210793 -1.487821 3.7543094 -2.1043894 -1.3693725
-0.91104174 4.6653523 3.9082906 -6.0815654 -0.2223906 0.8908819 0.5194908 1.1343774
10.492435 1.907663 -1.9034826 -0.9607436 1.452477 8.611477 -2.462114 -3.422831
1.2304506 2.5662365 -1.0353066 -1.2198912 -5.806356 5.9780354 1.8188689 -0.25765258
-2.1038709 -7.7951865 10.405234 -1.1572105 -3.5356433 -1.1794351 -2.8182535 -7.276638
-1.281671 -2.8625398 -0.12202882 -1.572278 -0.2693271 1.4266 -1.1122911 5.2205677
0.23484322 -2.467186 0.9320691 2.871711 -4.3821726 -2.5850363 -1.8953097 0.47364867
00000000: bcf3 1040 9a16 b540 3091 43bf 92bf 3840
00000010: 3f79 3b3f 74ec d8bf bb75 d33f e7cc 5740
00000020: 7971 8abe 57d4 3abf 2222 0f3f 87c5 0440
00000030: a1c2 12c0 fdd3 a53f fd4e 77c0 5cc2 ce3d
00000040: de15 c4be 202b 4d40 a06c 8e3f 1288 af40
00000050: 6b47 2e3f 6894 5e3e a466 9b3e 2c48 613e
00000060: 3baf 723e ed1e 90c0 b138 1140 e086 ef3f
00000070: 94c6 003e 5949 953f 8f1f 8340 84df 9840
00000080: 5a36 f7bf b05c d5be 2610 ce3f d93d 7c40
00000090: 98ae c3c0 4a5d 0b3f cab6 30be bac3 a3bf
000000a0: 8aae f43d 95f3 2340 d9fd ea40 fcb7 f03f
000000b0: d3e2 a7c0 2127 53c0 e322 ffbf 4276 d6c0
000000c0: dbd1 b43e c1f9 9cbd 0d05 3bbe 6bc3 8240
000000d0: 0bba 723e 3ec8 15bf 6322 0b3e 28de 27c0
000000e0: 766e 21c0 2d9f 3ebf 5076 b73c f97e c4bf
000000f0: 8580 2b41 6dc6 b93f 6313 c8bf e4c4 e8bc
00000100: daac c3bf 5890 1fc1 87a2 10c0 6bd6 a5c0
00000110: 935e 9e3d af53 303f 30df 03bf 8e12 7b3f
00000120: 9f3e 23c1 3f7d 1b40 e94b d5be 1993 f4bf
00000130: 3c83 e8bf 0a3f 08c1 94df c3c0 2096 2c40
00000140: d7d9 8a3d 8f4c 40c0 87a3 183f da96 80c0
00000150: 346f b0c0 cd58 2040 2cd4 4840 7c3b 66c0
00000160: 066d fd3f d690 9840 a1de 4041 e97c 1cc0
00000170: 0b4c 12c0 f983 263f 776e 1140 4eb0 2441
00000180: d3eb 1ac1 6df7 36bf e405 2440 eb83 433f
00000190: 5025 0ac0 5f8b 03c1 f9c0 ff3f 3118 76c0
000001a0: a923 5fbf 90de 8140 80bc a43e 2b2c 1c41
000001b0: 64e5 a340 580e b13f 117c 723e 0ce8 3fc0
000001c0: 6c95 b23e 3e54 e03f 4711 2c40 3d96 68c0
000001d0: 6ec8 babe 965d e4be 508c ac3e 963e 67c0
000001e0: 26ba 863e 9e7f b6c0 c135 b43f e69b a6bf
000001f0: 069b d93f db90 8d40 1945 793f 2a82 a3c0
00000200: d3c9 13be d2b2 1340 f7b0 2c3f e2fe 7e40
00000210: f2a6 6840 befb 32c0 2d2f 863f c1b2 e93f
00000220: e99a 693f d5e7 02bf 593e 8dc0 2c32 c540
00000230: 3c91 9a3f feb0 4cc0 0d4d 63c0 76f7 c3c0
00000240: 100a e940 f1c9 793f 56fc 80c0 affd 2bc0
00000250: 90c7 d6bf fb63 80c0 392a cb3e b29f c83e
00000260: 37d1 a9bf e54b 7ac0 5818 1ec0 5461 05bf
00000270: 575c a4c0 1bd7 5240 30ad 00c0 72a4 4fbd
00000280: 1b9b 93bf 5145 8ec0 53c9 2940 f78e adc0
00000290: 96dc 1ebf 2aae 753f 0c95 c23f 2615 8d40
000002a0: 07a1 ca3f 4511 d1bf 0a57 0a3f ec60 563f
000002b0: c779 f8be 7c5b c6c0 4fcf 953f f3e3 a8bf
000002c0: a984 fcbf 2b59 8740 1bee 1240 f3d8 7140
000002d0: 0f13 9540 c052 cf3f 68f7 30c0 de2f 05c0
000002e0: 032f 813f 266b 1640 9040 0541 231c 4a40
000002f0: 1d5e 23c0 aa83 02c0 c4f0 d03f eedc d740
00000300: 1df4 88bf f420 0c3f 1159 7c3f 547c 32c0
00000310: 1f66 9b3e 3606 47c0 d701 a43f 701c 7440
00000320: 6f16 53bf fbaf b7bf 05ab d93e 44fb 9a3f
00000330: eb70 bebf 9b46 7040 51ae 06c0 9947 afbf
00000340: 083a 69bf 914a 9540 6f21 7a40 2f9c c2c0
00000350: 5dba 63be d610 643f 59fd 043f 4733 913f
00000360: 04e1 2741 4d2e f43f 51a5 f3bf 4bf3 75bf
00000370: c4ea b93f 9cc8 0941 4793 1dc0 aa0f 5bc0
00000380: 687f 9d3f 383d 2440 ed84 84bf 6525 9cbf
00000390: abcd b9c0 114c bf40 b2d0 e83f 0aeb 83be
000003a0: d2a5 06c0 2b72 f9c0 d77b 2641 791f 94bf
000003b0: fb47 62c0 bbf7 96bf 445e 34c0 38da e8c0
000003c0: cc0d a4bf da33 37c0 3fea f9bd 6840 c9bf
000003d0: 3ee5 89be d49a b63f 8e5f 8ebf e40e a740
000003e0: be7a 703e 60e6 1dc0 159c 6e3f 1dca 3740
000003f0: c23a 8cc0 3c71 25c0 8299 f2bf 1482 f23e

value_network.0.bias f4 [100]
1.7934774 1.0788891 -0.40398714 -0.025452157 -0.29084986 2.9178295 -0.047371283 -3.778084
0.03858577 0.43585822 -4.0653234 -0.6723074 -2.9038548 0.18023947 3.9967299 4.395412
-3.9924529 1.264106 0.46333274 -0.044097282 3.0027633 1.5208114 1.4264497 -6.8681703
-2.6410675 -3.9926188 -2.00501 2.710619 -0.35072246 5.1894736 2.6858072 3.0358114
0.33250257 1.1663165 -1.7511318 1.0514914 3.4267287 -1.9273515 -3.625028 -5.300337
-0.12542695 0.9434503 -1.8591639 4.269414 0.25708836 0.3639089 1.0630702 3.546711
0.9713097 2.733251 1.8720483 4.2576013 0.78149384 0.42131323 0.36940625 3.4957583
-0.012159636 1.6076534 1.5207204 -1.2283304 2.0982857 -1.1679447 1.6281897 -2.9399467
-1.5813547 1.0275801 1.6150758 -2.1941154 -2.1885755 2.261382 2.3786511 1.4477687
2.4652874 1.7513224 0.10500552 0.52141786 3.0462656 -0.5562471 2.9434624 -1.9666835
5.0219126 0.29327178 0.99591196 -2.2627568 0.01429442 -1.7629825 1.9103754 1.6236175
0.83552474 0.82301253 -1.4455714 0.8085985 -0.56832224 -2.5274842 2.6505754 -2.0128024
-0.49208462 0.9388113 2.120269 -1.7810079
00000000: ab90 e53f 0a19 8a3f 67d7 cebe 0b81 d0bc
00000010: 46ea 94be b8bd 3a40 6408 42bd 21cc 71c0
00000020: 1d0c 1e3d cf28 df3e 2117 82c0 561c 2cbf
00000030: c2d8 39c0 b290 383e 6cca 7f40 37a7 8c40
00000040: 5984 7fc0 3ace a13f f339 ed3e 5a9f 34bd
00000050: 462d 4040 f3a9 c23f e795 b63f 0dc8 dbc0
00000060: 4007 29c0 1187 7fc0 1552 00c0 c87a 2d40
00000070: e591 b3be 2b10 a640 44e4 2b40 bc4a 4240
00000080: c73d aa3e dc49 953f 1625 e0bf 4597 863f
00000090: 864f 5b40 74b3 f6bf 7500 68c0 5c9c a9c0
000000a0: ec6f 00be f585 713f 15f9 edbf 0a9f 8840
000000b0: 16a1 833e 4452 ba3e af12 883f 50fd 6240
000000c0: c1a7 783f 96ed 2e40 479f ef3f 453e 8840
000000d0: fb0f 483f 5eb6 d73e d122 bd3e 81ba 5f40
000000e0: 3639 47bc 96c7 cd3f f7a6 c23f ee39 9dbf
000000f0: 504a 0640 367f 95bf 8568 d03f 1628 3cc0
00000100: d569 cabf bf87 833f ceba ce3f 636c 0cc0
00000110: 9f11 0cc0 7cba 1040 d23b 1840 7c50 b93f
00000120: 45c7 1d40 552b e03f 220d d73d a47b 053f
00000130: 04f6 4240 3666 0ebf b061 3c40 49bc fbbf
00000140: 82b3 a040 b827 963e 16f4 7e3f 02d1 10c0
00000150: 2533 6a3c 69a9 e1bf 2e87 f43f b3d2 cf3f
00000160: f3e4 553f f3b0 523f 7c08 b9bf 5000 4f3f
00000170: 917d 11bf 4dc2 21c0 07a3 2940 c1d1 00c0
00000180: 84f2 fbbe f055 703f 7db2 0740 11f8 e3bf

value_network.2.weight f4 [100, 100]
0.32890773 0.08382441 0.3714345 0.68082124 -1.0375255 0.15650156 -0.50674933 1.1595142
-0.1579082 -0.4199622 2.2259157 -0.7754055 1.1956555 0.7924922 0.14978707 -0.6437338
0.9550759 -0.28549218 0.11849666 -0.31156474 -0.6115776 -0.5998723 -0.40034765 1.1376756
1.0096227 -1.5594565 0.2710498 -0.5969598 0.5418078 -0.46778196 0.5758509 0.35764316
0.15498519 0.70537215 -0.29293516 -1.1388884 0.034461662 -0.26097015 1.2203728 0.71135145
-0.59169805 0.095258296 0.56038487 -1.0856678 -0.8461104 0.6138556 0.29058495 -1.6683776
0.56544065 -1.0450412 -0.5544042 1.8323501 -0.31648776 0.37574345 -0.03335679 -0.92966765
0.5812651 0.87591034 -1.5748456 -1.2156208 -1.0530941 0.36999184 -0.44250178 0.3249985
0.6434253 0.4329758 -0.29184362 0.5798596 -0.019607626 -0.44053662 0.6223272 -0.80980456
0.4359985 -0.44752 0.8212376 -0.09256556 -0.6014697 -1.1715038 -0.35135618 0.5572281
-0.96853137 0.7825411 0.35196975 0.7029472 -0.5000443 -0.6623656 -0.72311366 0.612286
0.77745 -0.5416756 0.70446634 0.3796229 0.7276197 -1.6741657 0.07223765 0.5898249
-0.91901493 1.1923836 0.029898595 -0.68639576 -0.19981241 -0.3283793 0.0028945778 0.052869424
-0.24971814 0.12851775 0.25927046 -0.6895469 1.5616784 0.5529689 -0.8090181 -0.00044481925
-0.5464111 -1.1401997 0.84178007 0.9487485 -0.18886891 -1.0541891 -1.0398754 -0.40820682
0.3830624 0.025652098 -0.048350748 0.47650078 -0.8810126 0.20976593 -0.0553952 -0.3504815
0.50266206 0.63420343 0.044071864 0.28471804 -0.2358978 0.107570834 -0.6798316 0.044423062
0.3850095 -0.002896137 0.20498963 -1.4842042 0.10403216 0.04367452 0.9194649 1.2352298
-0.09157591 -0.047187116 0.30280933 1.6226007 0.42439228 0.87711126 1.1009574 -0.19264714
0.545761 -0.17682311 -1.3998699 1.2659667 -0.022676576 0.14098983 -0.9391715 -0.04411015
0.6301215 -0.599612 -0.11730038 0.33689114 -0.14438616 -0.19441497 0.008469204 -0.31579852
-0.23126766 1.4504791 0.2302645 0.019753497 0.42870903 -0.0015061222 0.08004566 0.19602385
-0.1656027 -0.27186963 0.44142145 -0.14352916 0.9276906 -0.17081317 0.032012686 -0.12604523
1.5564904 0.02937254 0.0879179 0.7345982 -0.067750886 0.41601506 -0.57775795 -0.22087984
-0.22591786 0.14312197 0.29865983 -0.6606083 -0.84401065 1.9545643 -0.39754778 0.24748056
0.5298091 -0.33408114 0.34947088 0.049898285 -0.495979 -0.25584054 -0.056336936 0.02531228
-0.4961674 0.11780466 0.31019947 -0.02707639 0.19861518 0.82839304 0.93491983 -0.33635816
0.37976024 -0.6059065 -0.30631602 -0.58651686 -0.76474875 -0.31093583 -1.0665408 -0.2304098
-0.0710112 -1.2058091 0.35627112 -0.27515715 -0.389544 0.3786545 -0.060625236 -0.22570579
0.31547907 0.26000533 0.26176345 -0.41547343 -0.47811013 0.32481778 0.46154332 0.25139546
-0.4056779 0.6764626 0.823759 0.20655563 -0.78792375 0.20446995 0.37742424 -0.008191172
0.6845052 -0.53648245 0.1292746 1.2389923 0.06933951 0.36542168 0.018917182 -0.21210617
00000000: 9866 a83e 22ac ab3d aa2c be3e 4d4a 2e3f
00000010: a3cd 84bf f241 203e 53ba 01bf f66a 943f
00000020: b0b2 21be 4905 d7be 6775 0e40 fa80 46bf
00000030: 3d0b 993f c5e0 4a3f c861 193e bdcb 24bf
00000040: db7f 743f 082c 92be 60ae f23d 6a85 9fbe
00000050: 5990 1cbf 3b91 19bf 5efa ccbe 5b9f 913f
00000060: 513b 813f 459c c7bf 0ac7 8a3e 5cd2 18bf
00000070: eab3 0a3f 1e81 efbe f76a 133f 011d b73e
00000080: 70b4 1e3e 4593 343f 99fb 95be 18c7 91bf
00000090: ac27 0d3d e19d 85be 2d35 9c3f 211b 363f
000000a0: 8679 17bf c816 c33d 6275 0f3f 2af7 8abf
000000b0: b19a 58bf a425 1d3f 8dc7 943e 668d d5bf
000000c0: b8c0 103f e9c3 85bf 6fed 0dbf 738a ea3f
000000d0: af0a a2be 7261 c03e 21a1 08bd b3fe 6dbf
000000e0: cacd 143f a93b 603f 8a94 c9bf 7699 9bbf
000000f0: cacb 86bf 926f bd3e 988f e2be 3466 a63e
00000100: 85b7 243f 01af dd3e 876c 95be ae71 143f
00000110: 2ca0 a0bc 048e e1be d650 1f3f 5a4f 4fbf
00000120: 323b df3e 5721 e5be a13c 523f 0393 bdbd
00000130: ebf9 19bf d6f3 95bf f5e4 b3be 80a6 0e3f
00000140: acf1 77bf 9d54 483f 6135 b43e 59f4 333f
00000150: e702 00bf cb90 29bf fa1d 39bf c6be 1c3f
00000160: f706 473f 41ab 0abf e857 343f ef5d c23e
00000170: 4945 3a3f 104b d6bf 55f1 933d c4fe 163f
00000180: 9044 6bbf 07a0 983f e6ed f43c a2b7 2fbf
00000190: a09b 4cbe 5521 a8be f5b2 3d3b 9c8d 583d
000001a0: 1db6 7fbe 289a 033e 19bf 843e 2586 30bf
000001b0: 14e5 c73f 5f8f 0d3f cf1b 4fbf a136 e9b9
000001c0: 99e1 0bbf 10f2 91bf e67e 573f 2fe1 723f
000001d0: da66 41be abef 86bf a31a 85bf 7c00 d1be
000001e0: c120 c43e 5924 d23c 6f0b 46bd e9f7 f33e
000001f0: 0b8a 61bf e1cc 563e 14e6 62bd 5072 b3be
00000200: 76ae 003f 285b 223f b384 343d 90c6 913e
00000210: 318f 71be 194e dc3d 7209 2ebf f5f4 353d
00000220: f71f c53e 1ecd 3dbb cde8 513e 67fa bdbf
00000230: d00e d53d 0ee4 323d 0d62 6b3f 031c 9e3f
00000240: 278c bbbd 4747 41bd d309 9b3e 61b1 cf3f
00000250: f249 d93e 5d8a 603f 2cec 8c3f 4b45 45be
00000260: feb6 0b3f 1e11 35be f02e b3bf 320b a23f
00000270: 3ac4 b9bc a35f 103e 8b6d 70bf d8ac 34bd
00000280: a54f 213f 2c80 19bf 2e3b f0bd ff7c ac3e
00000290: f7d9 13be b814 47be 6bc2 0a3c 58b0 a1be
000002a0: 6ed1 6cbe 4da9 b93f 75ca 6b3e 16d2 a13c
000002b0: c07f db3e 1369 c5ba fbee a33d 7aba 483e
000002c0: c193 29be 7f32 8bbe fe01 e23e 4ff9 12be
000002d0: 227d 6d3f a6e9 2ebe bc1f 033d 0012 01be
000002e0: 143b c73f ae9e f03c 4d0e b43d a10e 3c3f
000002f0: fac0 8abd edff d43e f2e7 13bf 532e 62be
00000300: 0357 67be 918e 123e f1e9 983e a01d 29bf
00000310: 1511 58bf 2a2f fa3f 628b cbbe 8b6b 7d3e
00000320: 92a1 073f af0c abbe d9ed b23e 2562 4c3d
00000330: f6f0 fdbe 88fd 82be 8fc1 66bd b35b cf3c
00000340: a709 febe 9243 f13d 77d2 9e3e 4ecf ddbc
00000350: c761 4b3e 9111 543f e856 6f3f 2337 acbe
00000360: ef6f c23e b01c 1bbf 74d5 9cbe f825 16bf
00000370: 93c6 43bf fb32 9fbe 6984 88bf 8cf0 6bbe
00000380: 526e 91bd f457 9abf 2b69 b63e 66e1 8cbe
00000390: 5072 c7be 01df c13e 2b52 78bd 6b1f 67be
000003a0: 7986 a13e 6b1f 853e dc05 863e efb8 d4be
000003b0: daca f4be 844e a63e 684f ec3e e8b6 803e
000003c0: 04b5 cfbe a72c 2d3f dfe1 523f 5283 533e
000003d0: 5fb5 49bf 9260 513e c03d c13e 4434 06bc
000003e0: bc3b 2f3f ea56 09bf 9060 043e 4d97 9e3f
000003f0: df01 8e3d 8d18 bb3e 35f8 9a3c 5c32 59be

value_network.2.bias f4 [100]
0.99950784 -0.32561156 0.8687897 -0.9579911 0.16624378 -0.27509972 -0.7380623 1.6013769
0.77027375 -0.8384885 -0.21417528 1.2842245 1.2133082 -1.3198462 1.1347021 2.4481292
-1.5368806 -0.056849547 -1.0197537 1.1706201 -0.10260354 0.71883345 -0.77443033 -0.34545437
0.69417953 1.0263985 -0.64581 2.5239644 -1.0470818 -0.3565963 -0.91867584 0.08389932
0.26072896 -1.3169771 -0.7411702 -1.3099486 -0.2337835 -0.43074036 0.9143474 0.25119308
0.71091944 0.32450774 0.6647605 -0.59619504 -0.09548053 0.25097588 -0.0076956893 0.8563466
-0.36168015 -0.8024581 1.2688061 0.38995308 -0.79836863 -1.3040036 1.0164945 0.67017114
0.7037778 2.8031235 1.3168943 0.7780108 0.19224696 0.9770465 1.109561 -1.0551659
-0.60097784 -0.8739642 0.7408985 0.12285359 -0.15518065 0.09924577 1.3327403 0.35102287
0.13050139 -0.20939587 0.5465986 0.027819654 0.6486298 -0.4337542 -0.69240075 -0.50558156
0.74444515 -0.42280123 0.6585955 -0.3075193 0.6348311 -0.54940003 0.81868464 0.26599455
0.14040682 -0.17241715 -0.9820751 -1.4013147 -1.6433252 0.43813026 -0.6212956 2.2276115
0.043732136 0.6144275 0.83799046 0.38119534
00000000: bfdf 7f3f 8fb6 a6be 0069 5e3f e83e 75bf
00000010: cf3b 2a3e dfd9 8cbe a7f1 3cbf ebf9 cc3f
00000020: a930 453f 2fa7 56bf c450 5bbe 7861 a43f
00000030: af4d 9b3f b8f0 a8bf eb3d 913f 26ae 1c40
00000040: 81b8 c4bf 12db 68bd 4a87 82bf e1d6 953f
00000050: ce21 d2bd 7805 383f 1141 46bf 65df b0be
00000060: c0b5 313f 0761 833f ce53 25bf a288 2140
00000070: c706 86bf ca93 b6be 572e 6bbf 68d3 ab3d
00000080: 447e 853e b592 a8bf 55bd 3dbf 65ac a7bf
00000090: f164 6fbe 008a dcbe ac12 6a3f 619c 803e
000000a0: d1fe 353f e125 a63e be2d 2a3f 3da0 18bf
000000b0: 4c8b c3bd e97f 803e 1f2c fcbb 8839 5b3f
000000c0: 242e b9be e56d 4dbf 3d68 a23f eea7 c73e
000000d0: e361 4cbf 97e9 a6bf 7e1c 823f 5690 2b3f
000000e0: c82a 343f 6066 3340 fe8f a83f b72b 473f
000000f0: 63dc 443e b81f 7a3f 1806 8e3f ad0f 87bf
00000100: afd9 19bf 1ebc 5fbf 86ab 3d3f aa9a fb3d
00000110: ade7 1ebe 5e41 cb3d 3c97 aa3f 45b9 b33e
00000120: 28a2 053e df6b 56be e3ed 0b3f 0be6 e33c
00000130: 9a0c 263f 0815 debe 2d41 31bf cb6d 01bf
00000140: f593 3e3f 6779 d8be b799 283f 2b73 9dbe
00000150: 4a84 223f 7ba5 0cbf 5195 513f 7030 883e
00000160: cec6 0f3e 1f8e 30be 4669 7bbf 485e b3bf
00000170: 7b58 d2bf 9c52 e03e 3a0d 1fbf 3091 0e40
00000180: 7820 333d 1f4b 1d3f 8b86 563f 092c c33e

value_network.4.weight f4 [5, 100]
-0.37026212 -1.4543813 -0.2772706 0.128136 -1.2400823 2.0402863 0.5400501 -1.9433815
-0.12404075 -2.6156228 -0.6052964 -2.1125689 -0.6285905 -0.61290294 -1.7194002 -1.1107965
-0.5961773 1.5496529 -0.23098278 -1.1351106 -0.50139505 -0.8739975 -0.29924786 -1.2841004
-3.4282808 2.4163141 1.5763968 1.9582753 0.10404523 2.46652 -1.885308 -1.5069985
-1.4343088 0.09486251 1.0341069 1.0260608 1.8228326 -0.77610815 0.50237596 -2.4663603
0.29910406 -2.4757962 2.2878895 1.9983757 -0.78512585 1.5863326 -2.3338149 -1.9765552
-0.81298697 -2.2382605 2.1981382 2.500748 1.6113199 -1.6574578 -0.79231143 0.29158038
1.7057228 -0.37017354 -0.3397591 -1.6985621 1.6919509 -1.0342836 0.4951471 0.8968619
1.5714577 0.5062027 0.054017287 1.3359925 2.8668928 -1.9201974 0.811589 -2.447713
0.6504889 0.049241528 0.14725052 4.5893803 0.81494653 -2.7800157 -5.1405954 0.022913305
1.4036758 -2.8246384 -1.9185294 -0.9261214 -0.31388718 -1.1423875 -0.47922552 -1.0219679
0.45382634 1.3465984 0.54637307 1.2366289 1.6727183 -1.9512213 2.437112 -1.1738045
0.28761536 5.6080937 -1.2080057 -0.020160897 0.8537529 -1.0840355 1.0107697 -0.9156241
2.931782 -1.4984277 -1.4276725 -0.05204526 1.4609737 0.83021694 -1.045949 1.3509907
0.8684548 -0.64421046 0.60318744 1.5096564 0.019473521 -0.510622 -1.2343009 -0.10100385
0.21395048 -0.1014115 1.2362067 -0.4968159 -2.2840292 -0.90024716 -0.6361688 3.7470653
0.34818733 -0.105320476 -1.5502081 1.6732208 -0.3134669 -1.941552 0.36001647 -1.0217197
-1.0068873 -0.02042256 -0.2895879 0.9968183 -0.383076 1.8232851 -2.3004835 -1.8469465
0.3409656 -0.9937717 -0.44781706 0.40507734 -0.9089693 -1.5842447 -1.3694756 -1.0207579
-2.539331 0.40634295 0.074679546 1.3242856 -0.9562089 1.0491563 1.0159721 -0.33441827
0.4175905 -1.2615095 -0.21883821 -1.0130969 0.3632897 -0.48565906 0.91726893 -2.32648
-1.2442993 0.6665394 0.43785635 -0.22230105 0.4062796 1.2343099 0.18500248 2.0209162
0.04037643 0.3852731 -0.39517096 -0.18365744 0.514311 1.0092846 -0.108603485 2.2021737
0.9250044 0.028599005 -0.68028307 0.92073315 -0.0126763405 -1.4230952 -1.5596715 -1.6775547
0.07844121 -0.068691336 1.3200159 0.9379051 -0.9143544 0.006377306 -1.5268945 -3.8024428
1.107417 -0.33080617 0.3781986 2.6474955 1.5520313 -1.3642589 -0.45712018 0.12823614
1.2604474 -3.7249258 -1.3842638 1.3444222 1.2633612 3.015284 0.44632903 -0.56051236
0.10231467 -1.4662682 -2.6283395 -0.3068947 1.0376505 -1.4949502 -0.055095162 0.50849193
-1.897785 -0.5419847 0.40827066 -0.08734079 0.58754355 -1.525934 -0.58829653 1.896131
3.1534238 0.9931558 -1.0167013 -2.0925617 -0.16831593 0.00613751 -0.86380166 -4.438267
0.42968655 0.655925 0.030294375 -0.7999971 0.9125771 -2.112013 2.1275394 1.9423822
0.18326727 0.42892888 0.517305 -0.6317255 1.8446416 1.3150678 0.5308788 0.46502608
00000000: ff92 bdbe 2b29 babf 69f6 8dbe 1536 033e
00000010: 04bb 9ebf 0d94 0240 b940 0a3f bac0 f8bf
00000020: 1409 febd 5d66 27c0 b4f4 1abf 5434 07c0
00000030: 4feb 20bf 35e7 1cbf 4e15 dcbf 942e 8ebf
00000040: 139f 18bf 075b c63f c086 6cbe 4e4b 91bf
00000050: 6d5b 00bf 4dbe 5fbf 0437 99be 675d a4bf
00000060: f468 5bc0 e4a4 1a40 5fc7 c93f c4a8 fa3f
00000070: aa15 d53d 77db 1d40 c651 f1bf 54e5 c0bf
00000080: 6e97 b7bf 4747 c23d 9d5d 843f f655 833f
00000090: 9452 e93f 06af 46bf b69b 003f d9d8 1dc0
000000a0: 2b24 993e 7273 1ec0 c86c 1240 c6ca ff3f
000000b0: 02fe 48bf f20c cb3f 395d 15c0 c3ff fcbf
000000c0: ea1f 50bf a93f 0fc0 4cae 0c40 410c 2040
000000d0: bb3f ce3f 9427 d4bf ecd4 4abf 064a 953e
000000e0: 2055 da3f 6387 bdbe e8f4 adbe 7c6a d9bf
000000f0: d991 d83f 6863 84bf ec83 fd3e be98 653f
00000100: 8725 c93f 8096 013f 3b41 5d3d cd01 ab3f
00000110: 2c7b 3740 07c9 f5bf 4cc4 4f3f 54a7 1cc0
00000120: 7186 263f 7cb1 493d d7c8 163e 34dc 9240
00000130: 56a0 503f c7eb 31c0 c27f a4c0 afb4 bb3c
00000140: a6ab b33f e0c6 34c0 5f92 f5bf 4b16 6dbf
00000150: d2b5 a0be c139 92bf 0c5d f5be d8cf 82bf
00000160: ed5b e83e 565d ac3f 1bdf 0b3f db49 9e3f
00000170: a21b d63f 9fc1 f9bf a5f9 1b40 3a3f 96bf
00000180: 5242 933e 8175 b340 ee9f 9abf 7728 a5bc
00000190: 8d8f 5a3f adc1 8abf e760 813f 5766 6abf
000001a0: 51a2 3b40 7bcc bfbf f9bd b6bf 692d 55bd
000001b0: 3001 bb3f 1989 543f a8e1 85bf 43ed ac3f
000001c0: 0e53 5e3f faea 24bf 7e6a 1a3f 6c3c c13f
000001d0: ef86 9f3c 20b8 02bf 92fd 9dbf 1bdb cebd
000001e0: d615 5b3e d5b0 cfbd 053c 9e3f a75e febe
000001f0: 892d 12c0 9976 66bf f5db 22bf ebcf 6f40
00000200: 9c45 b23e 43b2 d7bd 386d c6bf 192c d63f
00000210: bc7e a0be c784 f8bf 1454 b83e b6c7 82bf
00000220: afe1 80bf 364d a7bc dd44 94be 7c2f 7f3f
00000230: 8a22 c4be 6861 e93f 1f3b 13c0 be68 ecbf
00000240: 0b93 ae3e d267 7ebf 4748 e5be 4c66 cf3e
00000250: 36b2 68bf 88c8 cabf fa4a afbf 32a8 82bf
00000260: 6684 22c0 2f0c d03e 97f1 983d 3182 a93f
00000270: 1bca 74bf c14a 863f 600b 823f df38 abbe
00000280: 6cce d53e 2579 a1bf 2017 60be 29ad 81bf
00000290: 1c01 ba3e 4ea8 f8be 23d2 6a3f 0ce5 14c0
000002a0: 3345 9fbf 53a2 2a3f b52e e03e e3a2 63be
000002b0: e103 d03e defd 9d3f 4a71 3d3e b156 0140
000002c0: c161 253d 8442 c53e d953 cabe b210 3cbe
000002d0: e3a9 033f 3d30 813f 816b debd 6af0 0c40
000002e0: 17cd 6c3f 7648 ea3c 0827 2ebf 2bb5 6b3f
000002f0: 6db0 4fbc fc27 b6bf 51a3 c7bf 1dba d6bf
00000300: c9a5 a03d 0bae 8cbd 48f6 a83f 8c1a 703f
00000310: 2113 6abf b8f8 d03b 4771 c3bf 395b 73c0
00000320: d7bf 8d3f 6d5f a9be 3fa3 c13e 9170 2940
00000330: f6a8 c63f 09a0 aebf a80b eabe 5650 033e
00000340: 5756 a13f 2f65 6ec0 8e2f b1bf 0716 ac3f
00000350: d2b5 a13f 6afa 4040 3d85 e43e bd7d 0fbf
00000360: 5b8a d13d adae bbbf b736 28c0 4d21 9dbe
00000370: bbd1 843f 875a bfbf 77ab 61bd 872c 023f
00000380: 9eea f2bf 82bf 0abf da08 d13e badf b2bd
00000390: 4169 163f ce51 c3bf 9a9a 16bf 6cb4 f23f
000003a0: b2d1 4940 753f 7e3f 4523 82bf 88ec 05c0
000003b0: 035b 2cbe 2a1d c93b 1b22 5dbf 4906 8ec0
000003c0: e0ff db3e b3ea 273f e92b f83c 9ccc 4cbf
000003d0: a79e 693f 392b 07c0 9b29 0840 fb9f f83f
000003e0: 6aaa 3b3e 919c db3e 1a6e 043f c3b8 21bf
000003f0: 371d ec3f 2454 a83f ace7 073f e617 ee3e

value_network.4.bias f4 [5]
-1.2788997 -0.13758539 2.6565213 1.5842347 -11.524418
00000000: fcb2 a3bf 2fe3 0cbe 7204 2a40 34c8 ca3f
00000010: 0464 38c1

value_network.7.weight f4 [100, 30]
0.002564286 0.03589362 0.017031558 0.01790621 -0.052285563 0.005606722 -0.017848194 -0.029002588
-0.002679889 0.081367396 0.0070984215 -0.022278048 -0.035717327 0.0052749827 0.091794066 0.0052490085
-0.011757469 -0.01821216 0.0022949572 0.06721194 0.0033913215 -0.027315745 -0.029532347 0.013469884
0.034360662 -0.0007075154 -0.011371489 -0.023790259 0.006492686 0.087196566 0.0074812 0.043896895
0.0028803279 0.046927325 -0.030320648 0.0015992842 0.0052215774 -0.010724307 -0.004020363 0.023788203
0.017641468 0.0122770155 -0.019326359 0.0055342265 0.08206073 0.019607665 0.0050624483 -0.023645485
0.0010687859 0.040115204 0.007883602 -2.3532872e-05 -0.015060526 -9.361877e-05 0.039792124 0.0078694895
-0.017130664 -0.02115629 -0.0053391405 0.001857845 0.013259038 -0.023287756 -0.012204545 0.008595778
-0.011168186 -0.009307292 0.01892195 0.009092296 -0.0106572015 0.00105787 0.0027091813 0.0007020957
0.010665008 -0.020752102 0.009919194 -0.0014248544 0.012631083 0.0064390316 -0.013115898 0.032810763
-0.0045851 0.014626962 0.007735274 -0.015779924 -0.01455545 -0.0010831708 -0.00082075945 0.011183611
-0.01309749 -0.0008108858 -0.0063877334 0.0262615 0.01243444 -0.005147666 -0.015211372 0.01386044
-0.016600322 -0.007855248 0.014290718 0.03735192 0.008212092 -0.00071495847 -0.020058485 0.020534202
-0.015273175 0.012219937 -0.008264001 -0.0072713587 0.034622874 0.02100668 0.008579337 -0.021585528
-0.012509195 0.009791846 0.03011614 -0.0040466636 -0.008602007 -0.016012473 0.017499905 -0.00413497
-0.0075581423 0.0008257583 0.005066777 -0.014479695 0.009201723 -0.00010236044 -0.0075032227 0.0039610304
0.009635865 0.0121523775 -0.007836457 -0.0048949244 0.004537909 0.007943042 -0.023238825 -0.0029638142
-0.0044488604 0.003883822 0.007858423 -0.019947276 0.0006671107 -0.0071537974 -0.0018709076 0.006367432
-0.005859125 -0.0005589982 0.0028859149 -0.001985639 0.003868651 0.006333874 0.0017603512 -0.0065350556
0.0031914639 0.001171877 -0.013464358 -0.0071699554 0.0022916137 -0.0075410497 -0.016063808 0.015691172
0.007664496 -0.0056251134 -0.010904732 -0.0057109236 0.036453154 0.0041465275 -0.0068780924 -0.006784751
-0.017196495 0.01750693 -0.0020442193 -0.0022124613 -0.0028433984 -0.0027069491 -0.01080988 -0.0061698398
0.0010147906 0.006869104 -0.002583907 0.045305483 0.018462205 0.010762491 -0.017574787 0.058765702
-0.07883484 0.0069137635 0.024411235 -0.008171374 -0.032371454 0.03498619 0.03178001 0.014078298
-0.0067464 -0.033291392 0.14119446 0.010856709 0.017336486 -0.014801803 -0.028702758 0.12076925
0.015717858 0.029947413 -0.0044196583 -0.026085157 0.046082042 0.010706507 -0.010209489 -0.014045637
-0.029708618 0.044301335 -0.0040698405 0.080226645 0.01571314 0.050076023 -0.07445416 0.0067444397
-0.046363056 -0.049574945 0.0010040526 0.14056525 0.015719345 -0.034173883 -0.050861552 0.02656582
0.2155527 0.017140333 -0.02720893 -0.041328415 -0.015388524 0.08995732 0.0057610087 -0.0579562
-0.053880747 0.04245777 0.10765253 0.024757138 -0.0054829805 -0.044238262 -0.004384877 0.15402423
0.00955317 -0.08062049 -0.048811756 -0.0030799038 0.02276601 -0.015074238 0.04446937 0.037381146
-0.018053746 -0.10152341 -0.007183112 0.019813456 0.0456658 -0.035803985 -0.073514946 -0.017171266
00000000: 950d 283b 3005 133d c485 8b3c 0bb0 923c
00000010: 6329 56bd 98b8 b73b 6036 92bc d696 edbc
00000020: 14a1 2fbb f3a3 a63d e099 e83b 7480 b6bc
00000030: 554c 12bd c3d9 ac3b 87fe bb3d e0ff ab3b
00000040: 66a2 40bc ab31 95bc fe66 163b 6aa6 893d
00000050: ef40 5e3b 45c5 dfbc d2ed f1bc cab0 5c3c
00000060: c4bd 0c3d 8e78 39ba 7b4f 3abc cae3 c2bc
00000070: 99c0 d43b 1d94 b23d db24 f53b 3bcd 333d
00000080: e2c3 3c3b de36 403d 0263 f8bc 139f d13a
00000090: c419 ab3b 01b5 2fbc 40bd 83bb 7adf c23c
000000a0: d784 903c 8925 493c 5052 9ebc 7558 b53b
000000b0: 750f a83d 41a0 a03c e5e2 a53b 2db4 c1bc
000000c0: 8116 8c3a d74f 243d 392a 013c 7568 c5b7
000000d0: 6dc0 76bc 3255 c4b8 11fd 223d 08ef 003c
000000e0: 9b55 8cbc f54f adbc f5f3 aebb ef82 f33a
000000f0: 703c 593c f7c5 bebc 92f5 47bc 4ed5 0c3c
00000100: c4fa 36bc 9d7d 18bc 3502 9b3c daf7 143c
00000110: 8b9b 2ebc 3aa8 8a3a 858c 313b d80c 383a
00000120: 49bc 2e3c 5000 aabc 1d84 223c 2ec2 baba
00000130: 9af2 4e3c 83fe d23b 10e4 56bc 9464 063d
00000140: 9b3e 96bb eda5 6f3c 2e78 fd3b e644 81bc
00000150: fb79 6ebc 2ef9 8dba 3c28 57ba 773b 373c
00000160: db96 56bc a091 54ba 3150 d1bb 5b22 d73c
00000170: d2b9 4b3c c1ad a8bb 1e39 79bc e616 633c
00000180: 66fd 87bc 4cb3 00bc 9e23 6a3c 54fe 183d
00000190: 038c 063c 0d6c 3bba b151 a4bc 5837 a83c
000001a0: 573c 7abc 2136 483c bc65 07bc 9444 eebb
000001b0: b7d0 0d3d 3316 ac3c 5990 0c3c 22d4 b0bc
000001c0: 5ef3 4cbc fb6d 203c 20b6 f63c e099 84bb
000001d0: 6fef 0cbc 972c 83bc f65b 8f3c a47e 87bb
000001e0: 4baa f7bb b477 583a 3507 a63b 3e3c 6dbc
000001f0: d3c2 163c 58aa d6b8 98dd f5bb 88cb 813b
00000200: bfdf 1d3c c41a 473c 7c64 00bc 9a65 a0bb
00000210: bdb2 943b 8823 023c 595f bebc 8d3c 42bb
00000220: bfc7 91bb b887 7e3b 9dc0 003c 7868 a3bc
00000230: 0be1 2e3a 676a eabb 3e39 f5ba e4a5 d03b
00000240: e7fd bfbb bc89 12ba 9e21 3d3b 7f21 02bb
00000250: 3289 7d3b 638c cf3b 96bb e63a 0524 d6bb
00000260: e127 513b ab99 993a 9c99 5cbc f2f1 eabb
00000270: e62e 163b e91a f7bb 3f98 83bc c68a 803c
00000280: 7426 fb3b df52 b8bb c3a9 32bc b322 bbbb
00000290: e74f 153d 98df 873b 9f61 e1bb 9e52 debb
000002a0: aadf 8cbc b16a 8f3c 4ff8 05bb f1fe 10bb
000002b0: 4f58 3abb 1267 31bb ec1b 31bc 5e2c cabb
000002c0: b902 853a 3916 e13b c456 29bb 3e92 393d
000002d0: 0d3e 973c 2955 303c 00f9 8fbc 4eb4 703d
000002e0: 2974 a1bd da8c e23b 12fa c73c 3ae1 05bc
000002f0: ee97 04bd ae4d 0f3d c12b 023d a9a8 663c
00000300: e810 ddbb 8e5c 08bd 4895 103e 57e0 313c
00000310: 3f05 8e3c 4383 72bc 0c22 ebbc de55 f73d
00000320: bdc2 803c 4754 f53c c8d2 90bb 8ab0 d5bc
00000330: 86c0 3c3d 586a 2f3c b345 27bc ac1f 66bc
00000340: 7d5f f3bc 5175 353d 4c5c 85bb de4d a43d
00000350: d8b8 803c 841c 4d3d 6c7b 98bd 7600 dd3b
00000360: 30e7 3dbd 190f 4bbd 6a9a 833a 56f0 0f3e
00000370: dbc5 803c eaf9 0bbd 3454 50bd 90a0 d93c
00000380: d9b9 5c3e e269 8c3c 43e5 debc fc47 29bd
00000390: 2620 7cbc 8b3b b83d d8c6 bc3b 7b63 6dbd
000003a0: 0fb2 5cbd 33e8 2d3d ee78 dc3d 7bcf ca3c
000003b0: 93aa b3bb 2e33 35bd 04af 8fbb 87b8 1d3e
000003c0: e684 1c3c 5b1c a5bd d6ee 47bd 36d8 49bb
000003d0: c97f ba3c f0f9 76bc 8425 363d f91c 193d
000003e0: 73e5 93bc 81eb cfbd 5060 ebbb d44f a23c
000003f0: 100c 3b3d 33a7 12bd 018f 96bd c1aa 8cbc

value_network.7.bias f4 [100]
0.3104162 0.11613542 -0.067125365 0.15119337 0.020916853 0.04901581 0.09557916 0.6018203
-0.4413229 3.3083587 -0.034261703 -0.220109 0.14026791 -0.316046 0.09179578 0.37942654
0.049054697 0.19185784 -0.20748013 -0.68002194 0.18029584 0.05475974 -0.07519165 0.45755926
0.46511087 0.13612866 -0.39532408 -0.48785722 0.44780475 0.7081337 -0.61692053 -0.14276159
-1.6055266 1.3086741 0.63136214 -0.4302241 -0.026159046 0.3237824 -4.0783525 -2.1400275
0.64643043 0.2854187 6.900881 0.17834722 0.041817155 0.16416316 -0.24713695 0.26619288
-0.7678291 -0.1621468 0.2914223 0.3817522 0.4395186 -0.5299286 -0.24543208 -0.1529232
-0.26621848 -0.13006522 0.1267929 -0.008592776 1.1987966 -0.05164432 -0.3249445 0.020958072
0.08985606 1.6538323 -0.265606 -4.9396987 2.7778447 0.81444955 -0.09788662 -7.2773666
0.15808713 -0.13615459 -0.0052309777 -0.1260806 0.29752862 0.36958477 4.689612 0.95743454
-0.16801919 0.33415776 -0.04434459 -0.10480783 0.19222522 -0.2027004 -0.4037006 -0.21856293
-0.27758265 -0.28935394 -0.202017 0.18660887 4.192489 0.55726224 2.041443 -0.10593347
0.022711156 -0.31728634 0.06003281 -3.3461823
00000000: dfee 9e3e 68d8 ed3d 0679 89bd 6fd2 1a3e
00000010: d259 ab3c cdc4 483d 02bf c33d e510 1a3f
00000020: 13f5 e1be 26bc 5340 0056 0cbd 4164 61be
00000030: 64a2 0f3e c8d0 a1be 6dff bb3d 3244 c23e
00000040: 94ed 483d 6276 443e ac75 54be eb15 2ebf
00000050: 799f 383e c04b 603d 14fe 99bd 3545 ea3e
00000060: 0323 ee3e 5065 0b3e eb67 cabe 6cc8 f9be
00000070: aa46 e53e 4048 353f 81ee 1dbf 1830 12be
00000080: e581 cdbf a282 a73f f3a0 213f 5546 dcbe
00000090: 7f4b d6bc cfc6 a53e dd81 82c0 36f6 08c0
000000a0: 777c 253f 6622 923e 04d4 dc40 a7a0 363e
000000b0: 7748 2b3d 631a 283e 7811 7dbe 6f4a 883e
000000c0: 7390 44bf d009 26be 4e35 953e 0675 c33e
000000d0: 9508 e13e 67a9 07bf 8c52 7bbe e697 1cbe
000000e0: ca4d 88be d12f 05be ffd5 013e b7c8 0cbc
000000f0: 2b72 993f ff88 53bd 205f a6be 43b0 ab3c
00000100: 7406 b83d c7b0 d33f 82fd 87be 0312 9ec0
00000110: 35c8 3140 c47f 503f c878 c8bd 30e0 e8c0
00000120: 98e1 213e 1c6c 0bbe 9f68 abbb 461b 01be
00000130: ac55 983e 373a bd3e 4d11 9640 6e1a 753f
00000140: 390d 2cbe ba16 ab3e aca2 35bd 7da5 d6bd
00000150: b0d6 443e b290 4fbe d8b1 cebe f6ce 5fbe
00000160: 501f 8ebe 3326 94be 8bdd 4ebe 6516 3f3e
00000170: df28 8640 bda8 0e3f 01a7 0240 a6f3 d8bd
00000180: bf0c ba3c 5b73 a2be f7e4 753d da27 56c0

value_network.9.weight f4 [50, 100]
-0.001139728 0.009041348 -0.001821841 0.0029915543 0.0049692267 -0.0012833709 0.007566559 -0.0075992825
-0.0068373648 0.039369714 -0.016155647 -0.006336162 0.0013379718 0.0047305417 -0.0031466726 1.7452103e-05
0.00890306 0.0072739096 -0.010225328 0.0023582634 -0.0037709689 0.00044702142 -0.0069483807 -0.003168355
0.0025380175 0.004071762 0.0021527936 -0.0013166751 0.0014143012 0.00067163666 -0.0017076477 -0.0049125515
-0.0018345475 0.006752028 -0.0065423795 -0.004170848 -0.0026317278 0.0037046508 0.01608481 -0.029788295
-0.00019004387 -0.0069069527 -0.046247937 0.01058583 0.0046703527 0.0010011581 0.013485406 -0.0011808098
0.013309526 0.0025848965 -0.0061480612 0.0032359078 0.005369916 -0.0075635673 -0.0039469195 -0.004519687
1.599674e-05 0.009978407 -0.0021231403 -0.00493762 0.008075793 0.0025381276 0.0073024607 -0.006112879
0.0008410171 -0.0020746498 0.0038261472 0.011394368 -0.008052811 0.0051905257 -0.004743344 0.0044837613
0.00014232862 -0.0047212318 -0.0037796227 -0.00039878263 0.008789029 0.005509992 -0.00031071703 -0.022381907
0.002388914 -0.006461906 0.012531844 0.00943482 -0.00040846312 0.0030825848 -0.006683758 -0.0052790083
0.00090073864 -0.0054531354 0.01206595 -0.007700553 -0.0027252028 -0.00068146305 0.018580267 0.0029951753
0.0055929325 -0.0023799413 0.00010982335 -0.00073448493 -0.0019370699 -0.007629732 0.0022203 0.0016292658
-0.0030438693 0.0031428619 -0.0077086645 0.0008943008 -0.0034157983 0.0029894158 0.0024934888 0.0036614744
0.00021432033 -0.010950732 0.00934914 -0.0045165233 -0.0032258928 0.0017555163 -0.0050805346 -0.000378902
0.01130498 0.012755828 -0.009417059 -0.00703339 0.002719695 0.0036192336 0.0074659754 -0.008787096
-0.003554359 -0.0013329732 0.0044246935 0.00950164 0.0020159227 -0.004125069 0.0020109506 0.0076066502
-0.000803124 -0.006427351 0.003247148 -0.003634329 -0.005861268 -0.0006091713 -0.01391101 -0.0031683883
0.0066398694 0.0006681802 -0.003563775 -0.003817013 -0.00023972164 -0.009072463 -0.0021204143 0.006188974
-3.852635e-05 0.0040129093 -0.0026449356 -0.0035186415 -0.010875034 -0.008795226 0.017472759 0.016707035
0.0021864497 0.0032809556 0.003355625 0.007538622 -0.00015208767 0.0038660427 -0.0024192664 -0.0039043974
0.0003479166 -0.003630523 -0.010353959 0.003665285 -0.0031603477 -0.009494591 0.015915569 -0.0067007034
-0.0008160091 -0.0061487434 -0.0017221181 0.0009250202 0.007182471 -0.0045112297 -0.008581872 0.00054296176
-0.008023537 -0.0005080019 -0.0048457645 3.632514e-05 -0.004562918 0.013904876 -0.00084641646 -0.009635141
-0.0025085348 0.004879585 0.0016438521 0.0051683784 0.0012319427 -0.0016442836 0.004162286 0.0013860537
0.00057709153 0.00018888758 9.832082e-06 0.001512422 -0.004222152 -0.0028349718 0.0024156037 -0.00040151106
0.003906374 -0.03754757 -0.007532732 -0.0014821086 0.0063752346 -0.009182178 0.00010787455 -0.0005978593
0.010568764 -0.007523223 0.004886283 -0.015323728 -0.013561139 -0.0030700054 -3.848895e-05 0.0011226743
-0.003586094 -0.0017245143 0.0071357447 0.007747044 -0.0070802947 -0.0010364748 0.008982648 -0.005818882
-0.0019468617 -0.010564127 0.0053389 0.007705115 -0.0042552445 0.0035025328 -0.013427378 0.025485467
-0.007998632 -0.0051880474 0.051828578 0.0025737092 0.0011263255 -0.006229436 -0.006009943 -0.0033901779
-0.0010586395 0.008600757 0.003639404 -0.0031309566 0.0027085722 -3.3729364e-05 0.0034891542 0.01055001
00000000: ed62 95ba 2922 143c d7ca eeba f40d 443b
00000010: e5d4 a23b c836 a8ba e6f0 f73b 6703 f9bb
00000020: f90b e0bb 2342 213d d958 84bc 949f cfbb
00000030: e25e af3a a902 9b3b 6838 4ebb 1b66 9237
00000040: 24de 113c fa59 ee3b 2288 27bc 188d 1a3b
00000050: 5c22 77bb 335e ea39 3eaf e3bb 2da4 4fbb
00000060: de54 263b 6a6c 853b e215 0d3b 4994 acba
00000070: 1360 b93a c610 303a 26d3 dfba 78f9 a0bb
00000080: 3375 f0ba 1e40 dd3b 7561 d6bb 9cab 88bb
00000090: 1179 2cbb bac9 723b 4bc4 833c 9506 f4bc
000000a0: 8346 47b9 b853 e2bb 7a6e 3dbd 3070 2d3c
000000b0: c209 993b 4b39 833a e4f1 5c3c 67c5 9aba
000000c0: 3310 5a3c 5e67 293b ad75 c9bb 8611 543b
000000d0: 1ff6 af3b cdd7 f7bb 2955 81bb e219 94bb
000000e0: bd30 8637 797c 233c 6224 0bbb c2cb a1bb
000000f0: 5550 043c b756 263b 7b49 ef3b 8c4e c8bb
00000100: b477 5c3a d9f6 07bb 19c0 7a3b 71af 3a3c
00000110: f0ef 03bc 4915 aa3b 0e6e 9bbb 84ec 923b
00000120: 0c3e 1539 90b4 9abb 8cb3 77bb b313 d1b9
00000130: dcff 0f3c 2a8d b43b bce7 a2b9 435a b7bc
00000140: 548f 1c3b 65be d3bb 5d52 4d3c 8194 1a3c
00000150: fe26 d6b9 3105 4a3b 6d03 dbbb 88fb acbb
00000160: 8c1f 6c3a 37b0 b2bb 43b0 453c ec54 fcbb
00000170: 5199 32bb 36a4 32ba a535 983c b44a 443b
00000180: eb44 b73b caf8 1bbb f650 e638 738a 40ba
00000190: 48e5 fdba d502 fabb 7482 113b 178d d53a
000001a0: a77b 47bb 79f8 4d3b f798 fcbb 836f 6a3a
000001b0: 96db 5fbb 13ea 433b cd69 233b 59f5 6f3b
000001c0: 2dbb 6039 b36a 33bc 232d 193c 58ff 93bb
000001d0: 8069 53bb 5a19 e63a 9d7a a6bb 5ea7 c6b9
000001e0: 8638 393c d2fd 503c 024a 1abc 5a78 e6bb
000001f0: e93c 323b aa30 6d3b 24a5 f43b c0f7 0fbc
00000200: 40f0 68bb 29b7 aeba 05fd 903b c4ac 1b3c
00000210: 921d 043b 962b 87bb 27ca 033b 3541 f93b
00000220: bd88 52ba 879c d2bb 1ace 543b ec2d 6ebb
00000230: e10f c0bb cbb0 1fba 01eb 63bc bca4 4fbb
00000240: 4393 d93b d028 2f3a 398e 69bb da26 7abb
00000250: ca5d 7bb9 aba4 14bc a6f6 0abb e0cc ca3b
00000260: 5a97 21b8 b97e 833b a856 2dbb 0299 66bb
00000270: 332d 32bc da19 10bc 0823 8f3c 31dd 883c
00000280: 8a4a 0f3b 4d05 573b 0cea 5b3b 8b06 f73b
00000290: b979 1fb9 6f5d 7d3b 8e8c 1ebb ebe0 7fbb
000002a0: 9368 b639 12ee 6dbb a7a3 29bc 4735 703b
000002b0: d61d 4fbb 338f 1bbc 5e61 823c 9391 dbbb
000002c0: 72e9 55ba 667b c9bb b2b8 e1ba 0e7d 723a
000002d0: ef5a eb3b f0d2 93bb fb9a 0cbc 8c55 0e3a
000002e0: 2775 03bc 6e2b 05ba 38c9 9ebb d25b 1838
000002f0: 8884 95bb 47d1 633c 0ce2 5dba b6dc 1dbc
00000300: 3b66 24bb ede4 9f3b 8676 d73a 805b a93b
00000310: 2379 a13a 0185 d7ba c963 883b 3fac b53a
00000320: f547 173a 2010 4639 78f4 2437 763c c63a
00000330: fa59 8abb efca 39bb 1b4f 1e3b e781 d2b9
00000340: 0a01 803b 7bcb 19bd 23d5 f6bb 5043 c2ba
00000350: 58e7 d03b d970 16bc b53a e238 a9b9 1cba
00000360: 9c28 2d3c 5e85 f6bb 1d1d a03b 6010 7bbc
00000370: 8a2f 5ebc 2532 49bb 326f 21b8 b326 933a
00000380: ac04 6bbb 1909 e2ba f7d2 e93b eada fd3b
00000390: d101 e8bb 53da 87ba f52b 133c 52ac bebb
000003a0: d72d ffba 2915 2dbc f0f1 ae3b 307b fc3b
000003b0: 946f 8bbb c08a 653b 81fe 5bbc e6c6 d03c
000003c0: b20c 03bc 7f00 aabb 344a 543d adab 283b
000003d0: 36a1 933a 4c20 ccbb 0eef c4bb bf2d 5ebb
000003e0: 0cc2 8aba 31ea 0c3c 1183 6e3b bc30 4dbb
000003f0: 4d82 313b a178 0db8 4baa 643b f3d9 2c3c

value_network.9.bias f4 [50]
-0.031331338 0.0014596323 0.008267152 0.0032433877 -0.008473464 -0.042285774 0.07044466 -0.0026998054
-0.010226431 0.026597695 0.038625102 0.0390919 -0.014119032 0.43749708 -0.0074127554 -0.05591303
-0.0065787127 -0.003921404 0.0054470915 0.007968514 0.010149396 0.04388264 0.02534382 0.011823159
-0.0026125303 0.017606782 -0.010483318 0.08902724 -0.0084796855 0.01443345 0.18608518 -0.029578181
-1.5759776 -0.0385799 0.026372407 0.016693076 -0.0045791534 -3.5746417 0.0070533073 0.027685378
0.0020920036 -0.00028634563 0.0029511708 -0.016587745 0.0073106154 -0.03068565 0.00023359049 0.24570285
0.0029151817 -0.044133414
00000000: 4a55 00bd 2251 bf3a f372 073c 048f 543b
00000010: 49d4 0abc d933 2dbd 4a45 903d 38ef 30bb
00000020: c38c 27bc 69e3 d93c 5b35 1e3d d41e 203d
00000030: 8353 67bc 9eff df3e b3e6 f2bb 1005 65bd
00000040: 3e92 d7bb 1f7f 80bb 847d b23b 5f8e 023c
00000050: a749 263c 48be 333d d89d cf3c ecb5 413c
00000060: fc36 2bbb 193c 903c 39c2 2bbc ea53 b63d
00000070: 61ee 0abc 477a 6c3c 1d8d 3e3e f14d f2bc
00000080: a2b9 c9bf f505 1ebd f20a d83c ebbf 883c
00000090: b90c 96bb eec6 64c0 6e1f e73b 72cc e23c
000000a0: ff19 093b a920 96b9 6e68 413b 06e3 87bc
000000b0: e38d ef3b 7960 fbbc f8ef 7439 8799 7b3e
000000c0: a20c 3f3b 3dc5 34bd

value_network.11.weight f4 [1, 50]
0.0045189844 0.0013628362 -0.002736368 -0.0076128873 -0.00038229075 0.002152589 0.00053446874 0.0063863066
-0.002161524 -0.0094641205 -0.0067519047 -0.008394843 0.0066416916 0.020908656 0.0006350849 0.008669416
-0.0018560035 0.003545098 -0.0027494123 -1.7400676e-05 -0.0054783574 -0.0009808033 0.03584765 8.0715145e-05
0.0045311674 -0.0067457957 0.0035784608 -0.019711604 0.0033970817 -0.010641673 -0.039462227 0.0053383065
0.1580178 0.009696935 -0.0042128195 -0.0038317312 -0.0008565763 0.1997559 0.007803865 -0.005228912
-0.0029771775 0.0007177349 -0.00803372 0.004813716 -0.0008782761 0.00679485 0.0030282452 -0.07409998
-0.0015407937 0.009093628
00000000: fd13 943b 32a1 b23a a354 33bb 8775 f9bb
00000010: 326e c8b9 7312 0d3b 971b 0c3a 3944 d13b
00000020: 5ba8 0dbb 660f 1bbc 153f ddbb 868a 09bc
00000030: 8ca2 d93b a148 ab3c d47b 263a 2b0a 0e3c
00000040: 2545 f3ba e054 683b 7c2f 34bb abf7 91b7
00000050: cb83 b3bb 4c8e 80ba fcd4 123d 9d45 a938
00000060: 307a 943b d60b ddbb 9c84 6a3b 3b7a a1bc
00000070: 93a1 5e3b 695a 2ebc 25a3 21bd f6ec ae3b
00000080: 6bcf 213e e5df 1e3c b10b 8abb c81d 7bbb
00000090: dd8b 60ba d08c 4c3e 90b7 ff3b 4b57 abbb
000000a0: c01c 43bb 6026 3c3a dd9f 03bc 60bc 9d3b
000000b0: 1d3c 66ba 55a7 de3b 8675 463b bbc1 97bd
000000c0: 75f4 c9ba 71fd 143c
