data/output/rl_model.pth (torch_old, 80171 bytes, 11 tensors)

value_network.0.weight f4 [100, 6]
00000000: f2d7 393f 69e4 b340 cb23 7abf d4e9 2740
00000010: 22d4 393f cee1 0cc0 2e3a fb3f 2869 3740
00000020: e718 b03e b8fe 35bf 3d4f 3fbe 726c 4a3f
00000030: c933 50bf 3e28 a73f a9a7 20c0 0d73 443f
00000040: 3b73 cfbf 1882 e23f 9261 753f cad4 8d40
00000050: 3f2e ce3f 954a 173d f97a 353e fec6 013e
00000060: 8d0d d23f dcd9 23c0 854f 1840 4f5a bf3f
00000070: ef82 3c3e 8dc8 0f3f bce5 5f40 08bb 8640
00000080: 8e39 9ebf eda6 13bf 97e8 1d3f 91b4 3340
00000090: ad66 86c0 e734 34c0 4447 3bbd 7c2b 47bf
000000a0: c427 993e b038 2340 8c5c b940 6b20 3d40
000000b0: c962 72c0 954e 183f a605 d0bf 4b7b e8c0
000000c0: 27e0 75bf 5fa4 bfbf 1343 64bf d5ed 73be
000000d0: 9a00 923f f082 b7bf f7b6 46bf e734 babf
000000e0: 4c6d c6bf 1b76 7f3d 7e79 c53e 8002 f7be
000000f0: 4897 ce40 59c3 5f40 1bef 5bc0 8936 0b3e
00000100: a26c 4bbf 33d2 13c1 0db2 bfbf 2643 a2c0
00000110: 442d 3f3e e31a d3be afc7 99be 7512 763f
00000120: 5ba4 dfc0 48e2 5c40 6d5c 2940 bef9 ebbe
00000130: 14b5 ffbf d702 d6c0 e66c 62c0 2a3c 2740
00000140: 7000 49c0 3fb0 2fbd 65d4 ff3e 423f 6bc0
00000150: 05b1 8ac0 91bb 8140 39c2 693f 28f8 6abf
00000160: a5b5 003f f1b3 8840 e8ae 1e41 cccb 9fbe
00000170: 4bba 81bd cf39 333f 07a6 0a40 c1ce 0d41
00000180: 48c4 f1c0 95e7 11bf f1b5 4f3f 1e36 7e3e
00000190: c4d7 d4bf b056 f3c0 5563 8f3f 93f8 07c0
000001a0: 777c 033f b197 45bf 7dea 6bbf fcf5 1641
000001b0: 8aaf 3340 1904 0440 ddc7 803f 45d5 35c0
000001c0: a50c 61be b7ba 263f fa1e 973f 369f 4dc0
000001d0: f0f2 c8bd 3af2 473f d05f 633f eb31 2ec0
000001e0: e103 bdbf 54f3 3fc0 f153 2640 8467 f3bf
000001f0: f465 bd3f f532 6840 211c 893f 451d 91c0
00000200: eaaa 813e 94b4 dc3f de35 92bc 2128 fb3f
00000210: 134d 1abe aaeb 5cc0 6eef 013f aa28 cebf
00000220: 2420 b83e 2a3d 98bf da56 17c0 ac80 b940
00000230: 371a d33e 4387 993f 04dc 36c0 cb19 6cc0
00000240: de86 bd40 a19b 6bbf c24f 1ac0 47b0 d4bf
00000250: 872a 8cbf 743a 92c0 5e19 163e b527 6d3e
00000260: 4164 aebf c228 a1c0 ecb6 c1bf cff8 433f
00000270: e830 ddbe 2c18 c440 738d ffbf 604a 3540
00000280: 6fd5 60be 2a66 36c0 07d5 c63f 9ae8 5dc0
00000290: 553b 443f 1eaa dbbc 1716 b63f dd6c 2840
000002a0: 16b5 513f ce95 03c0 8d6b 37bd 46c5 3b3f
000002b0: 5cf5 293f 6ed4 41c0 5185 8dbf 3ccf bec0
000002c0: b6bd 23c0 6775 bb3e 70b6 e43f 9e6b 0840
000002d0: a5b3 2f40 5c08 8540 8079 9bbe b20e 00bf
000002e0: ed29 463e 591e 0b40 9fed dd40 0506 3740
000002f0: 1c49 cabf 7acc e3be 5ba4 a13f bf6f d740
00000300: e97e 513f be2a 0940 c1e8 7a3f 34e4 e43d
00000310: fa3d 1f3f 28c9 bcbf 1de1 773f 7a7c 4740
00000320: 5323 053f 9328 ffbe 670a 8a3e ccac c93e
00000330: c1d5 c1bf 28de 2d40 39de 3e3d 98dd 9fbe
00000340: 1c7c afbf 3b07 2740 3327 4b3f 737a c1c0
00000350: d2fc c13d b57f 023e a220 b03e 224f 643f
00000360: 2b7b fd40 a14b a93f b17d 88bf fb30 c4be
00000370: 17f4 ae3f 834f fd40 efd2 debf 7b38 80c0
00000380: 5770 7ebd 329e 183f 94df 03bf 3ca9 8bbf
00000390: 1743 a3c0 9cf4 7e40 cee3 2440 370f d33d
000003a0: 6cbb d5bf 8032 aec0 d6c5 0e41 0264 083f
000003b0: b225 ccbf 9ffc 933a 754f 10c0 51c8 c5c0
000003c0: 4399 d8bc 740f 1ac0 34e1 53be 0cc0 ebbf
000003d0: 0456 ebbe f181 8c3f 02ed 98bf a72b 8840
000003e0: 2a2d bebe 3712 f4bf 4264 483d 5050 ae3f
000003f0: db0d bebf 1dbd 61bd 5870 9abf 8823 3340
0.7259513 5.621632 -0.97710866 2.6236467 0.72589314 -2.201282 1.962713 2.8657932
0.34394 -0.71091795 -0.18682571 0.79071724 -0.8132902 1.3059156 -2.5102332 0.76738054
-1.620704 1.7695951 0.95852005 4.432225 1.6107863 0.03693636 0.17722692 0.12673566
1.6410385 -2.560172 2.3798535 1.4949435 0.18409322 0.5616539 3.4983969 4.210331
-1.2361314 -0.57676584 0.6168303 2.807896 -4.2000337 -2.815729 -0.04572226 -0.77800727
0.2991315 2.550335 5.792547 2.9551036 -3.7872794 0.59494907 -1.6251724 -7.2650504
-0.96045154 -1.4972037 -0.8916485 -0.23821194 1.1406434 -1.4336834 -0.7762293 -1.4547395
-1.5502105 0.062368494 0.38569254 -0.48244095 6.455967 3.496298 -3.4364688 0.13595022
-0.79462636 -9.238818 -1.4976212 -5.070697 0.18669611 -0.4123145 -0.3003516 0.96121913
-6.988813 3.451311 2.6462662 -0.46088976 -1.9977136 -6.6878467 -3.5378966 2.6130471
-3.1406517 -0.04289269 0.49966732 -3.675736 -4.334109 4.0541463 0.91311985 -0.91784906
0.5027717 4.2719655 9.917702 -0.31210172 -0.06334361 0.70010084 2.1663835 8.862977
-7.55521 -0.5699399 0.81136996 0.24825332 -1.6628346 -7.604332 1.1202189 -2.1245468
0.51361793 -0.7718459 -0.92154676 9.435055 2.807589 2.06275 1.0060993 -2.841142
-0.2197748 0.65128654 1.1806328 -3.2128425 -0.09811962 0.78103983 0.88818073 -2.7217968
-1.4766809 -2.9992266 2.5988734 -1.9015965 1.4796739 3.6281102 1.0711709 -4.534823
0.2532571 1.7242608 -0.017847952 1.9621621 -0.15068464 -3.4518838 0.50755966 -1.610616
0.3596202 -1.1893666 -2.364676 5.796957 0.41230938 1.1994404 -2.8571787 -3.6890743
5.9227133 -0.92034346 -2.411118 -1.6616296 -1.0950478 -4.5696354 0.14658114 0.23159678
-1.3624345 -5.0362253 -1.5133948 0.76551527 -0.43201375 6.1279507 -1.9965042 2.8326645
-0.21956418 -2.8499856 1.5533761 -3.4673219 0.76653033 -0.026814517 1.4225491 2.6316445
0.8191694 -2.0560184 -0.044780303 0.7334789 0.66390014 -3.0285907 -1.105631 -5.962797
-2.558454 0.36613008 1.7868176 2.1315684 2.7453396 4.1572704 -0.30366135 -0.50022423
0.19351931 2.1737273 6.9352565 2.8597424 -1.5803561 -0.4449194 1.2628282 6.732391
0.81834275 2.1432338 0.98011404 0.11176339 0.62203944 -1.4748888 0.9682787 3.1169724
0.52007025 -0.49835643 0.2696106 0.39389646 -1.5143358 2.7166843 0.046598647 -0.3122375
-1.370975 2.6098163 0.7935669 -6.0461974 0.0947205 0.12744029 0.34399897 0.8918325
7.921285 1.3226205 -1.0663358 -0.3831862 1.366824 7.915956 -1.7408122 -4.0068946
-0.062118854 0.59616387 -0.5151303 -1.0911021 -5.1019397 3.9836798 2.576404 0.103056364
-1.6697822 -5.4436646 8.9233 0.532776 -1.5949004 0.0011290497 -2.2548497 -6.1807027
-0.026440268 -2.4071932 -0.20691377 -1.8417983 -0.45964062 1.0977155 -1.1947329 4.2553287
-0.37143832 -1.9068059 0.04892374 1.361826 -1.4847978 -0.055111993 -1.2065535 2.7990437

value_network.0.bias f4 [100]
00000000: 0ee6 e33f 0364 d3be ad39 38c0 8927 8dbe
00000010: 1c39 32be 3a75 6e3f 00b0 9f3e 54a8 42c0
00000020: 6b34 ec3f 3dd7 943f b1b6 26c0 7bf0 78be
00000030: b1eb 50c0 a975 32bc 8d84 853f d1d8 8540
00000040: c2c0 3fc0 0a6a 9cbf 087c 2cbf 96fe 863f
00000050: 12f9 2340 ab4a 0b3e 78c3 a33e 0457 afc0
00000060: 40be bcbf aee4 04c0 1c2b 0cbe d3fb 2040
00000070: e2e9 f83f 2e7d 8540 2aee 863f f5fe 1240
00000080: c93a 783f 0c1f 5a3f faee 2ac0 e05f 333f
00000090: 7758 5040 3e36 63bf 106f 30c0 ce8d 85c0
000000a0: 4fd3 01bf 6224 51bf 3d03 6bbf 2c4b fc3f
000000b0: f9c2 f7be 823c 3d3f db0c 273e 4fd5 3140
000000c0: 9037 7fbf ae95 5340 62f4 0140 7dfe 5840
000000d0: 320c 463f d778 d93f 84e9 51bf 679d 5540
000000e0: 5f4e 723e 51ca c83f 6ddb 6c40 8aa2 8fbf
000000f0: 025b 2740 f1dc 1fc0 8fab df3f 87de e0bf
00000100: cde1 babf de6e bebe a9b5 22bf dbe8 aabe
00000110: 3a0f e1bf ae82 d63f 2e6e 8b3e 84ee 0340
00000120: 7ecd e53f 6cf7 0c40 0cb9 b13d b0ba a4be
00000130: a100 b43f 0c76 a63f fc21 2d40 fd0f 67c0
00000140: e5fb 4d40 0eef 43bf 8f45 793f b57e ebbf
00000150: 7242 a03f 64ab 20bf 321f 5e3f 5ac1 4f40
00000160: f785 80bd 3e38 903f a620 cfbf 26d4 2cbf
00000170: dcc2 59c0 f57c abbf 6412 1240 cc13 9ebd
00000180: 0472 2640 931a 923f 3cbe 623f 9210 d3bf
1.7804582 -0.4128724 -2.8785203 -0.27569225 -0.17404598 0.93147624 0.31188965 -3.041524
1.8453497 1.1628186 -2.6049006 -0.24310486 -3.2643855 -0.01089231 1.0431076 4.182717
-2.99614 -1.221986 -0.67376757 1.0546443 2.562077 0.13602702 0.31985068 -5.479372
-1.474556 -2.0764575 -0.1368832 2.5153701 1.9446375 4.1715307 1.0541432 2.2968113
0.969647 0.85203624 -2.670836 0.7006817 3.2553995 -0.8875464 -2.7567787 -4.17356
-0.50713056 -0.8169614 -0.91801816 1.9710441 -0.4839094 0.7392045 0.16313498 2.7786443
-0.99694157 3.3060107 2.030541 3.3905327 0.7736236 1.6990002 -0.8199694 3.337732
0.23662709 1.5686742 3.7008927 -1.1221478 2.6149297 -2.4978602 1.747423 -1.756791
-1.4600159 -0.3719396 -0.6355844 -0.3338078 -1.7582772 1.675863 0.27232498 2.0614328
1.7953336 2.2026014 0.08677873 -0.3217368 1.4062692 1.3004775 2.7051992 -3.6103508
3.2184994 -0.76536644 0.97371763 -1.8398043 1.2520278 -0.6276152 0.8676635 3.2461762
-0.06275552 1.1267164 -1.6181839 -0.6751121 -3.4025183 -1.3397509 2.2823725 -0.0771862
2.600709 1.141436 0.88571525 -1.6489432

value_network.2.weight f4 [100, 100]
00000000: 294d 093f a22e a93d a6da 7c3e f9e8 023f
00000010: e31e ffbe 31db b33d 1280 acbe f815 8f3f
00000020: e4d0 543e f5a3 93be 9486 df3f b9f9 1cbf
00000030: eddb 6d3f 4072 183f 8422 893c e7f2 0fbf
00000040: 7073 2e3f 859b 44be 3877 223d 8d28 373e
00000050: 8d98 2bbf 3056 a9be 832a edbd be4e 853f
00000060: 2da9 623f 9e00 d2bf 6f9e b33e e454 d6be
00000070: eb34 873e ca61 acbe 6060 803e 1b4a 783e
00000080: 4bf6 903e 2614 193f df58 b7be 766a 35bf
00000090: a7ce df3d c290 4abd e466 553f e8d6 5c3f
000000a0: 11e9 31bf 58e0 a53d 5192 963e 5675 55bf
000000b0: 38ab 70bf 4951 a43e 78cb d93e 9de4 90bf
000000c0: ab83 f93d b9be 5dbf 4fc0 51be 1597 f13f
000000d0: abbf 9a3d 728c fc3e 5b22 2fbd 1653 18bf
000000e0: 7de4 d13e 7193 8e3f e719 babf 8669 80bf
000000f0: 26ff 81bf bd31 fe3e 2552 7abe 6358 633d
00000100: b2e4 533e 7b25 0b3e 1b28 dcbe 8762 dc3e
00000110: 5ab0 fcbc 331f 9c3d 3713 af3e 4a3e 43bf
00000120: b546 af3e af7e bbbe ecce 263f 4743 19be
00000130: 3a5f 67bf 647e 1cbf ff93 86be e288 553e
00000140: 77ef 55bf ecd9 223c 9d8c df3e 3425 383f
00000150: 3603 96bd 54b2 09bf ef90 10bf beee 083f
00000160: a7dd 0e3f 34eb 72be 6316 2d3f 9933 163d
00000170: efcc 0b3f 38b0 f1bf e6c5 a53e 8442 f23e
00000180: eb90 86bf aff6 a43f 8777 b03d 76f0 f1be
00000190: faf6 39bd 11e4 a8be ccd8 40bb 49a4 c33d
000001a0: ac17 423e 3617 2b3e 22d0 503d ed31 a8be
000001b0: 7541 ab3e 19d2 ef3e 3d99 98be 6492 99bd
000001c0: 536f bdbd 32f8 fabc 177c 863e 75f4 023f
000001d0: d5e0 dcbe d502 38be e8d1 9abe b70e af3d
000001e0: 53b4 06bd 8e59 eebd 0b9a 5f3d 9c23 d4bd
000001f0: c6a9 80be 779d 403e d90f e5bd bb10 a53c
00000200: 49d8 f83e cadc eb3e 4718 3e3e 48fd a53e
00000210: 4a32 45be 95b5 973c c474 3ebf f4f4 433d
00000220: fc1e 823e ddab 313d 0354 c23d fe35 e6be
00000230: e04e 40bd 30e3 29bd 1b3e bc3e f7d3 c53e
00000240: 81c8 0ebd 8553 2cbe e0c1 de3d 1a03 843e
00000250: edfc 12be e127 e83e 03c3 9d3e c9fd 53be
00000260: c0fd d93e 5b6e 49be c779 37be 4a9d 803e
00000270: b072 2cbd 69dc 403d 8f90 cc3d 523a 883d
00000280: c7a8 133f a552 53bd 3d14 d8bd 7fcb d83d
00000290: b3e9 97bb 175a edbd a749 353d 334b ffbd
000002a0: df34 15bf 3c72 913e f794 7a3c 5e22 14be
000002b0: 5925 a3bd 2d37 cabd dd26 babd 922e d6be
000002c0: fcbc 31be 1e53 07bc 3624 773e 6b27 cebe
000002d0: 8a12 d23e 48e7 23bf 836d 00be 682f a73d
000002e0: 83cb eb3e 69f5 95bd d3c9 32bf c1b8 263f
000002f0: 4760 1c3d f232 823e 68e7 83be 027d 10bf
00000300: 68d5 0cbe 92c3 1f3e 291e 22bc 4b78 35be
00000310: 3407 a73d 6c70 b13d 7175 82be 0749 d63d
00000320: 5c82 1c3f 000f 1ebe d5cc 9d3e 0414 e2bc
00000330: ce26 12bf 6a68 e1bd af1e 81be 84f7 923e
00000340: 7a0c fcbd 6122 2f3d 03fa 013f 6380 5fbe
00000350: c3a8 4c3e f5b9 fe3e 5250 cf3e 2dd7 5dbe
00000360: 786f 823e 1d06 1ebf 0739 85be a40b d6be
00000370: 3568 51bf b02e 8abe 5a32 3bbf 07be 03be
00000380: 6f51 1c3e b210 91bf d250 3d3e 7067 b0be
00000390: 062d 80be a574 c83e d4c8 c83c 9146 7f3b
000003a0: 681b 1abd 4089 b23e 80b8 393e 472a 2abe
000003b0: b641 77be 084f 1d3e d89c 053f 968b 8f3e
000003c0: e867 00bf 7ed2 a83e df55 273f d9bb 1f3d
000003d0: a7bf 32bf 350c 6c3e 6d7d 923e 7c98 7cbe
000003e0: 120c 923e b7a7 96be c451 aebd d87c 923f
000003f0: 3fba 7c3d f226 ca3e a775 d4bd 7950 a4be
0.5363336 0.08260848 0.24692783 0.5113674 -0.49828252 0.08782042 -0.3369146 1.1178579
0.2078281 -0.28836027 1.7462945 -0.61318547 0.92913705 0.5954933 0.016740091 -0.56230015
0.68144894 -0.19199951 0.039664477 0.17886563 -0.6702965 -0.33073568 -0.11580374 1.0414655
0.8853939 -1.6406438 0.35081813 -0.4186164 0.2640756 -0.33668357 0.25073528 0.24247019
0.28312907 0.5979637 -0.3580999 -0.7086557 0.10928088 -0.049454458 0.83360124 0.8626542
-0.69496256 0.08099431 0.29408506 -0.83382165 -0.9401126 0.32093266 0.42538047 -1.1319767
0.12183317 -0.86619145 -0.20483516 1.8874232 0.07556089 0.493259 -0.042757373 -0.5950178
0.40994635 1.1138746 -1.4539155 -1.0032203 -1.015599 0.49647322 -0.24445398 0.055504214
0.20692709 0.13588516 -0.42999348 0.4304392 -0.03084581 0.07623138 0.34194347 -0.7626692
0.34233633 -0.3662009 0.6515949 -0.1496707 -0.9037968 -0.61130357 -0.26284787 0.20852998
-0.8356852 0.009939652 0.43661967 0.7193177 -0.07324831 -0.5378773 -0.5647115 0.5348929
0.55806965 -0.23722535 0.67612284 0.0366703 0.5460958 -1.8881903 0.32377547 0.47316372
-1.0512975 1.2887782 0.08616548 -0.4725377 -0.04540155 -0.329865 -0.0029426096 0.09552819
0.18954343 0.16708073 0.05097974 -0.3285059 0.33448377 0.4683998 -0.29804412 -0.07498625
-0.09249749 -0.030635927 0.26266548 0.5115426 -0.43140283 -0.1796983 -0.3023827 0.085477285
-0.032886814 -0.11638175 0.054590266 -0.103583544 -0.25129527 0.18810068 -0.11184663 0.02014958
0.48602512 0.46066886 0.18563949 0.324198 -0.19257465 0.018519202 -0.7439692 0.047841027
0.25414264 0.043376792 0.0948868 -0.44963068 -0.04695022 -0.04147643 0.36766133 0.3863828
-0.034859184 -0.16828735 0.108768225 0.25783616 -0.14354296 0.45342925 0.30812845 -0.2070228
0.42576408 -0.19671004 -0.17917548 0.25120002 -0.042101562 0.0470852 0.0998851 0.06651749
0.5767941 -0.051592488 -0.10550735 0.10585689 -0.0046360134 -0.11589449 0.044259693 -0.12465515
-0.582838 0.28407466 0.015294305 -0.14466235 -0.07966108 -0.09873805 -0.09089444 -0.41832405
-0.17357248 -0.008259563 0.24134907 -0.4026445 0.4102977 -0.6402478 -0.12541775 0.08163339
0.46053705 -0.07322199 -0.6983921 0.6512566 0.038177755 0.25429493 -0.25762486 -0.56440747
-0.13753283 0.15601948 -0.009894886 -0.1772167 0.08155671 0.08664021 -0.25480226 0.104631476
0.6113641 -0.1543541 0.30820337 -0.027597435 -0.5709046 -0.110062435 -0.25218722 0.28704464
-0.12307067 0.042757396 0.5077211 -0.2182632 0.19986252 0.4975125 0.40490967 -0.21664114
0.2547567 -0.6172808 -0.2602007 -0.41805756 -0.8179963 -0.26988745 -0.73123705 -0.12865458
0.1526544 -1.133322 0.18487862 -0.34453917 -0.2503435 0.39151493 0.024509825 0.0038951973
-0.037623793 0.34870338 0.18136787 -0.1661769 -0.2414616 0.1536218 0.5219245 0.28036183
-0.5015855 0.32973093 0.65365404 0.038997505 -0.6982369 0.23051532 0.28611317 -0.24667543
0.28524834 -0.2942483 -0.08511689 1.1444349 0.061701056 0.39482838 -0.10374003 -0.32092646

value_network.2.bias f4 [100]
00000000: 3d95 873f 98b8 95be d265 453f 4214 50bc
00000010: 5473 32be bdaa e5bd 1f97 22bf 3c12 3b3f
00000020: 7a4d ff3e 3b14 31bf 152a d1be b172 ae3e
00000030: a3d7 723f 8bd5 88bf 9220 0c3f 711c e73f
00000040: 30e6 84bf f799 2abe 4dd9 04bf 601f b93f
00000050: b7ab ba3e 390d 653f 48f1 11bf ca55 03bf
00000060: 7b19 573b 1991 0c3f c7cc e1be 311a 8d3f
00000070: 751f 86bf e0ba ebbd c769 1bbf 0a93 a0be
00000080: 8828 403f 8a0e 14bf f5c0 babe 82ce 23bf
00000090: 9098 523f 8cca a4be 231e 603f 2781 013f
000000a0: 8d37 2e3f ba2e c0bd 5a70 cf3e f0c0 80be
000000b0: a228 0bbe 4d57 a03e b0be 5c3e d3d3 873f
000000c0: 1ec1 92be 2f17 b0be 538c 9c3f dd0f ea3e
000000d0: abb0 a0be 0820 a4bf 54fe c83e 30c1 e43e
000000e0: ca74 4c3f efab b73f 39a2 973f 3663 2c3f
000000f0: 1e35 a33c 201e 873f 7708 493f 8abb a8be
00000100: daf2 76bf 4651 cfbe 223c 483f 39f7 37be
00000110: f5dd ed3d e5da 1b3d 9d13 183f 1654 393f
00000120: c770 483d 8db8 29bd 4738 443e 87a4 da3e
00000130: f211 933d 6085 67bf 134e aebd 0b03 46bf
00000140: 4a0d 0c3f 02f4 98be 22c6 e33e 6b7d 90be
00000150: 69a7 cb3b eb50 02bf f158 e63e 13c9 2c3f
00000160: 0425 9c3e 2695 8abe d179 d0be a692 39bf
00000170: 4223 6cbf 57c2 d53e 5503 30be 7fc5 9a3f
00000180: 6876 273d 37ac b03e 14ae 273f 9750 bc3e
1.0592419 -0.29242396 0.7710849 -0.012700142 -0.17426807 -0.11214206 -0.6351184 0.730747
0.49863797 -0.69171494 -0.4085242 0.34071878 0.94860286 -1.0690168 0.547372 1.8055555
-1.0382748 -0.16660295 -0.51894075 1.44627 0.36459133 0.894733 -0.5700879 -0.5130278
0.0032821584 0.549089 -0.44101545 1.1023618 -1.047835 -0.11510253 -0.6070828 -0.31362182
0.75061846 -0.57834685 -0.3647534 -0.6398698 0.8226404 -0.3218578 0.87545985 0.50587696
0.68053514 -0.093839124 0.40515405 -0.251472 -0.13589719 0.31316605 0.21557117 1.0611519
-0.28662962 -0.34392688 1.2230324 0.45715228 -0.31384787 -1.2822275 0.39256537 0.4467864
0.79865706 1.4349345 1.1846381 0.67338884 0.01992279 1.0556068 0.7852854 -0.3295558
-0.9646431 -0.40491694 0.78216755 -0.17965402 0.116146006 0.03805055 0.5940493 0.7239393
0.048935678 -0.041435767 0.19162093 0.4270365 0.07181157 -0.9043789 -0.08510985 -0.77348393
0.5470778 -0.29873663 0.444871 -0.28220686 0.006215025 -0.5090472 0.44989732 0.67494315
0.3049699 -0.27066916 -0.4071794 -0.7248939 -0.922413 0.41749832 -0.17188771 1.2091521
0.040884405 0.3450639 0.655 0.36780235

value_network.4.weight f4 [5, 100]
00000000: c5f0 0dbf 8aa4 5fbe 436a 67bf 36e5 953f
00000010: a6f0 5ebf fc11 623f 103f 5e3f 8833 8abf
00000020: f6ee 25bf aea3 ecbf d910 aabb ba32 eabf
00000030: 17a5 8f3e 233d 5a3f 475d 75bf 4c9a a5bf
00000040: e140 053f 04cd 1d3d 15e3 a7be 6bd8 43bf
00000050: 243f 04bf 269f d2bf efd3 1d3f 774c 31bf
00000060: 5480 aebe d65c c43f eb8f 683e d4e0 eb3f
00000070: a079 453f 9d5c ff3f 86ab 3bc0 e985 95bf
00000080: 92da 08c0 2977 b43f 296c e63f 0dce 9f3f
00000090: af04 ea3f 0291 923d 1adc 85be 092b 1bbf
000000a0: 4aaa 613f f50c e9bf 6d75 2140 3bd1 b43f
000000b0: 229d b23d 55d2 923f 4f08 efbe c974 a2bf
000000c0: 345e f1be 5294 01c0 80d3 623f 138c 0740
000000d0: a3e5 e13f c1be 9cbf cdd9 cd3d 4561 1fbf
000000e0: 3c12 3c3f 93ae 50bf 2496 8bbf f2c3 99be
000000f0: f0a7 b03f d70d debe a2f5 0d3f 2516 b63f
00000100: 6895 653f 67ad 6b3f 6e90 98be 2a97 213f
00000110: c937 0b40 ffbf 403e 3020 663f c103 14c0
00000120: 15f6 ebbd 89d3 623e 1cde c73c 0967 5a40
00000130: 3d6f f2be a02e 12c0 4da1 4cc0 443f 633f
00000140: 9fbb 073f eb03 1ac0 3c76 7bbf c248 69bf
00000150: aefd 9bbf bd0c 31bf db43 f83e 4ba2 35be
00000160: 1d29 dabe 77c9 1dbe 1c9d 2e3e 13cd 173d
00000170: e75d 173d af93 3ebf 52be 323e 349d 30be
00000180: 0db5 a8bb 446b a440 574f d3bf c923 bb3d
00000190: 1b4b 7bbf 0691 063e 0d59 1ebf 2042 9dbd
000001a0: 761d 2540 7293 9ebf 0a48 24be 6641 78bf
000001b0: 3802 aa3f cf9e 3e3f 9239 e0bf c360 1e3f
000001c0: 6d0e 7fbf c8bd e9be 1953 893f ab61 82bd
000001d0: ab46 3d3f 8dda a43e 2d8d ec3e 3e81 cfbe
000001e0: 119b 2fbe 0814 893d 03dc 0d40 bb81 cdbe
000001f0: 6c9d 45bf 9959 93be 941d 063f 324f 0740
00000200: cb78 f83e 3884 2a3f 9295 27be 5730 b63f
00000210: 5e72 b7bf 5a34 0ec0 660a 12be b877 683f
00000220: 8cae bcbf 83c8 ab3e b6e3 b7bc 4af4 a13f
00000230: 1b07 93bf 239e a03f 4038 00c0 de7b 3fbf
00000240: 9c82 0cbe 7961 c2bf ca68 69bf 19e8 4abf
00000250: e381 6fbe ade1 b6bf cdea 00c0 872a a2bf
00000260: 535c efbf b636 8b3f 5d1f 2abf d570 1ebf
00000270: 6dd3 48bf 9ce6 b13f 28f3 c53f 3ed6 efbf
00000280: 204d 443e d69e 2cc0 da66 67bf 6739 59bf
00000290: 1073 963f 59e5 263d 8292 42bf 3c57 a8bf
000002a0: b250 a6bf 7db9 dbbe 06e0 74bf 3b7a 91bf
000002b0: a582 2ebe 2e68 893d f773 b8be f82e 673f
000002c0: 816f 0ebe 304b 093f e8fd a93e 9257 ec3d
000002d0: 4bec e3ba a97b df3f 715c ca3b 33f0 0340
000002e0: 6e97 b13f 0f65 033f 0b0e f4be bca0 f8be
000002f0: 67be 49be 09bb 60be 40b9 a43e 7a5e 173e
00000300: 38e6 2f3f e2ad 243e 512b 0d40 68f0 90bf
00000310: 7fe5 20bf d787 2b3d 47d8 c5bf feec 21c0
00000320: 5720 383f d0ce 12bf 2ee9 0b3f ceee d43f
00000330: 25c7 0b40 3eb7 ddbf cd13 d8be 82b0 5a3f
00000340: 7c00 05bf bc59 c6bf 361c bcbf 7cc1 0940
00000350: af9c c33f de4c 6a3f a61d 003f 9723 a83e
00000360: c1de 99be af22 0cbf f9b2 79bf 4ef7 313f
00000370: 5997 a93f ed52 97bf f837 80bf e2a3 acbc
00000380: dee3 f9bf 8338 e43e 0017 00be c337 38bf
00000390: 77fd b93e a6ae 1cbf 3d2f 2ebf 1005 a83f
000003a0: a2d8 ed3f 2110 cc3e b68d a4bd 4eec cdbf
000003b0: 901f d5be 1109 00bf 5114 5bbe 3ed9 b0c0
000003c0: 4db4 a33e f103 ae3e 1e80 5f3d 8219 39bf
000003d0: ed4c 153e 9a9a 86bf d00c 953f bd70 903f
000003e0: cc6f 78be 1bce bc3f 0cba 503f 99bb 9cbf
000003f0: 867f 5140 2f5d 0bbe e9fc 053f e97f 013f
-0.5544551 -0.2184011 -0.9039652 1.1710575 -0.8708595 0.8830869 0.86814976 -1.0796976
-0.6481775 -1.8487451 -0.0051899967 -1.829673 0.2805564 0.8524954 -0.95845455 -1.2937713
0.5205212 0.038525596 -0.32790437 -0.765021 -0.51658845 -1.6454818 0.6165151 -0.692573
-0.34082282 1.5340831 0.2271115 1.8427987 0.7713871 1.9950138 -2.932344 -1.1681491
-2.1383405 1.4098865 1.8001758 1.2484757 1.8282679 0.07156564 -0.26144487 -0.6061254
0.88150465 -1.8207079 2.522792 1.4126352 0.08721377 1.1470438 -0.46686026 -1.269189
-0.47142184 -2.0246778 0.88603973 2.1179245 1.7648205 -1.2245713 0.10051308 -0.62257797
0.73465323 -0.8151638 -1.0905194 -0.30032307 1.380125 -0.43369934 0.5545293 1.4225508
0.896811 0.92061466 -0.2979769 0.63121283 2.1752799 0.1882324 0.89892864 -2.3127291
-0.11521546 0.22151007 0.024397902 3.4125388 -0.47350493 -2.2840958 -3.197345 0.8876841
0.5302066 -2.4064891 -0.98227286 -0.91126645 -1.2186792 -0.6916006 0.4848927 -0.17737691
-0.42609492 -0.15408884 0.1705212 0.03706081 0.036954787 -0.744441 0.17455414 -0.17247468
-0.005148536 5.138094 -1.6508588 0.09137685 -0.98161477 0.1314126 -0.6185463 -0.07678628
2.5799232 -1.2388747 -0.16043106 -0.9697479 1.3281927 0.7446107 -1.7517569 0.61866397
-0.99631387 -0.45652604 1.0728484 -0.06366285 0.73935956 0.3219799 0.4620146 -0.4052829
-0.17148997 0.06693274 2.2165534 -0.4013804 -0.7719333 -0.28779295 0.5238888 2.1142087
0.48529658 0.66608 -0.1636565 1.4233502 -1.4331777 -2.2219453 -0.14261779 0.90807676
-1.4740767 0.33551416 -0.022447448 1.2652676 -1.1486543 1.254826 -2.0034332 -0.7479838
-0.13721699 -1.5185996 -0.9117552 -0.792604 -0.23389392 -1.4287621 -2.014331 -1.2669228
-1.870005 1.0876071 -0.66454107 -0.6189092 -0.7844761 1.3898501 1.546483 -1.8737257
0.19170046 -2.6971946 -0.90391314 -0.84853214 1.1753864 0.040746067 -0.76004803 -1.3151622
-1.2993376 -0.42914954 -0.9565433 -1.1365427 -0.17042024 0.06709324 -0.36025974 0.90306044
-0.13909723 0.5363035 0.33201528 0.1154014 -0.0017389146 1.7459613 0.0061755707 2.0615356
1.3874338 0.5132608 -0.47666964 -0.4856013 -0.19701539 -0.21946348 0.32172585 0.14782134
0.6871066 0.16081956 2.2057688 -1.1323366 -0.62850183 0.041877594 -1.5456628 -2.5300899
0.71924347 -0.5734682 0.5465268 1.6635377 2.1840298 -1.7321546 -0.42202607 0.8542558
-0.51953864 -1.5496135 -1.4696109 2.1524343 1.5282191 0.9152354 0.5004524 0.32839653
-0.3005276 -0.5474042 -0.97538716 0.6951798 1.3249313 -1.1822182 -1.001708 -0.02107424
-1.9522665 0.44574365 -0.12508774 -0.71960086 0.3632619 -0.6120399 -0.6804083 1.3126545
1.8581736 0.39856055 -0.08034842 -1.608774 -0.41625643 -0.50013834 -0.21394469 -5.526519
0.31973496 0.33987382 0.05456554 -0.72304547 0.14580126 -1.0515931 1.1644535 1.1284405
-0.24261397 1.4750398 0.81533885 -1.224475 3.2734084 -0.13609765 0.52339035 0.505858

value_network.4.bias f4 [5]
00000000: 030a ce3e c6f2 edbf 0247 db3f fd23 d43f
00000010: 5822 c1c0
0.40242013 -1.8589714 1.7131045 1.6573483 -6.0354424

value_network.7.weight f4 [100, 30]
00000000: 1855 3bbb a1fb 493c 4929 5bbb b9d8 31bc
00000010: e681 4b3c 0800 3839 7da8 843c deee 273b
00000020: 0fa7 313d a184 123c 7636 943c ee60 dd3c
00000030: 8c98 76bc 1865 e73c a81b 813c 7bcb 77bc
00000040: 77c6 aabc f7d3 8e3b 8b3a cebc 9918 493c
00000050: 365b 07bc 669a c53c 9d68 2dba 0942 f93c
00000060: 2265 ed3b f9b9 fbbc 8611 a33c b24e e13c
00000070: 7b7d 9d3c fc06 d53c a6d7 3fbc 3679 383c
00000080: 9f7b 28bb 8122 e7bb 2d8a 953c 97c4 d4bb
00000090: ab29 b4bd ff67 073c 5504 8bbc 3f88 7ebc
000000a0: 3429 e73c 6b87 2bbc 62ad 26bd 7ed1 0c3d
000000b0: 1fd3 693c e518 803c fb76 adbc 04f3 3ebc
000000c0: e57e 0f3c 3a8a f9bc 18eb 91bb 3c5e 263d
000000d0: 269b 043c 6f38 983c f71d de3c d811 af3d
000000e0: af3e 183d 87bb 84bd 1357 0e3d 6374 2dbc
000000f0: 5842 38bc 9a9d f6bc 8464 15bc dae2 ef3c
00000100: e338 de3b 4bd6 ff3b a5df 34bb 57dc 01bc
00000110: f4ba 85bc 8e3b 21bd a461 343d 738a 923d
00000120: 42d6 02bd c871 1c3c 3605 b63c 4dff 333d
00000130: 1525 6c3d 3b7e 1fbd 3bad 393d e31d d23c
00000140: 8fd3 cabb 5a94 383d 812e 1c3c d165 3b3d
00000150: 207c 8cbb 0809 a03c 03fe 443c 4c9d aabc
00000160: bfb3 4d3d 6542 843b e245 993a 6b5c 013e
00000170: 83f3 c03c 29be 0f3c 1000 b3bb b71e a93c
00000180: e1f6 f23c 1046 e5bc 5bea 193d ef2c 32bc
00000190: 240f 9c3d a305 efbb 1ffc 97bd d23d af3c
000001a0: 56dd cdbb b0f7 453d b71c 9bbb dec1 b5bc
000001b0: 0118 013d 45b9 53bc 59bb 313c a17b 4f3c
000001c0: 50ed 163c bec8 bdba faf0 273a 194b b13c
000001d0: 7eb7 66bd c32d bdbb 3b1f f2bc 3c6b eabc
000001e0: 1740 3b3c 797a 00ba a5c0 82bc a021 52bb
000001f0: b9d0 03bc e4e7 45ba 5e0a 0ebc c1d2 2f3b
00000200: a418 25bd 07f6 17ba 84f5 a2bc 7f0b 3b3c
00000210: 837d 9a3c 11a3 99bc d4ce 13bb bcc5 693c
00000220: 94b7 eb3c 1770 10bc f3f4 d73c c414 25bb
00000230: 7139 e5bb 279f aebc 6d0e 153c ab8f 1b3c
00000240: 940e a2bb c6c1 67bb 3169 51bc c549 1a3b
00000250: a527 f83b a0de 11bb 0a40 42bc fe95 97ba
00000260: f695 253c 98eb 75bb cebf 3cbc 5b74 13bd
00000270: d0bd 0d3b 44aa 123d 30e4 0abc 3f32 cfbc
00000280: 007d b03b b108 dbbc 049d 123c 4378 19bd
00000290: ba65 ca3b 47f9 2f3c 7637 033c 27fa c3ba
000002a0: 15cd 103c 4143 003d d00c 0a3d 8170 103d
000002b0: c019 cdbc 6428 1dbb 24c1 cabc 0c47 ae3c
000002c0: 6d1d d73c 7327 cebc 27f5 513d 37b0 923b
000002d0: 1f1e 51bc 31a0 e2bc 17b3 413c 086e 16bc
000002e0: 713f 953b 2342 04bc 12ca 933c fbc3 123c
000002f0: 6919 613d de57 2e3c 8cf3 993c 5d7a de3c
00000300: 70fe b5bc 60f4 173d e125 363c f927 34bd
00000310: f9da 58bd 1b5f e03c 917f 65bd 7798 493c
00000320: 301c 31bc 8c55 64bc 4800 933b de3c 26bd
00000330: 1052 a4bb a5c3 483c a6b1 143d 6957 9abc
00000340: 9d7b c8bb a1b3 ae3c 0e6b 15bc 97e7 2c3d
00000350: 0b0f d9bc 3aba 40bd 885e 093d 8246 5b3a
00000360: 073f 20bc 4f49 ac3b 59c7 b43d c834 d43c
00000370: 7d21 973c c02d 903d e980 12bd 607b d93d
00000380: 4c6b 263d 9842 f5bc 2574 49bd 58be 2b3c
00000390: ab38 98bc bb45 14bc b2a7 4dbc a793 a43c
000003a0: 5332 40bb cd03 d03c 41ac 153d f6dc 963c
000003b0: a6ad 713d 760b 46bc 083d 5b3d f8c3 433d
000003c0: 8801 87bc 8517 b3bc e777 113d f4a1 063d
000003d0: cf65 1bbc 47d9 293c 9f25 013d 9767 9dbc
000003e0: 480d ac3c fa4a 87bc b5bc 643d d2dd 313c
000003f0: 68ca 5cbd e158 1d3c 523f b1bc 0912 9b3c
-0.0028584655 0.012328059 -0.0033441356 -0.010854893 0.012421107 0.00017547619 0.016193623 0.0025624554
0.04337221 0.008942754 0.018092375 0.027023759 -0.015051018 0.028246447 0.015760258 -0.015124197
-0.020846589 0.0043587643 -0.0251744 0.012273931 -0.0082614925 0.024121474 -0.0006615015 0.030426996
0.007244722 -0.030728327 0.019905817 0.027503345 0.019224873 0.026004307 -0.011709129 0.011259368
-0.002570845 -0.0070536737 0.018254364 -0.006493162 -0.0879701 0.008264541 -0.01696984 -0.015535413
0.02821789 -0.010469298 -0.040692694 0.034379475 0.014271527 0.01563687 -0.021174898 -0.011654619
0.008758281 -0.03046142 -0.004453074 0.040617213 0.008093631 0.018581597 0.027113898 0.08548325
0.037169155 -0.064810805 0.03475101 -0.010586831 -0.011246286 -0.030104447 -0.009118203 0.029282976
0.006781684 0.007807528 -0.0027599123 -0.007926068 -0.016324498 -0.039363436 0.04403843 0.07155313
-0.031942613 0.009548612 0.022219282 0.043944646 0.05765255 -0.038938742 0.04533122 0.025649017
-0.0061897705 0.045063354 0.009532572 0.045751397 -0.004287258 0.019535556 0.012023452 -0.020826958
0.050220247 0.004036235 0.00116938 0.12632911 0.023553615 0.008773365 -0.005462654 0.020644529
0.029658737 -0.02798751 0.037577014 -0.010874971 0.07620075 -0.007294373 -0.07421135 0.021391783
-0.006282489 0.048331916 -0.0047336477 -0.02218717 0.031517033 -0.01292259 0.01084789 0.012663753
0.009211853 -0.0014479381 0.0006406453 0.021642255 -0.056327336 -0.0057732775 -0.029555907 -0.028615586
0.011428854 -0.00049010623 -0.015961 -0.00320635 -0.008045369 -0.0007549508 -0.008669464 0.00268285
-0.040306702 -0.0005796854 -0.019892462 0.011416315 0.018858677 -0.018754514 -0.00225537 0.014268335
0.02877406 -0.008815787 0.026361918 -0.002518938 -0.006995373 -0.021316124 0.009097678 0.009494702
-0.0049455855 -0.00353633 -0.012781427 0.0023542505 0.0075730854 -0.002225794 -0.011856088 -0.0011565087
0.010106554 -0.0037524458 -0.011520339 -0.035999637 0.002162803 0.03580691 -0.008477256 -0.025292514
0.005385995 -0.026737543 0.008948568 -0.037468206 0.0061766775 0.010740585 0.008008828 -0.001495187
0.008837958 0.03131414 0.033703625 0.035263542 -0.025036693 -0.0023980374 -0.0247503 0.021274112
0.026259148 -0.025165295 0.051259186 0.004476573 -0.012763529 -0.027664276 0.0118224835 -0.009181507
0.004554682 -0.008072409 0.01804069 0.008957858 0.054955874 0.010641066 0.01879289 0.027157957
-0.022216052 0.03709829 0.0111174295 -0.043983433 -0.052943204 0.0273891 -0.05602986 0.012304417
-0.010809943 -0.013936412 0.0044861175 -0.04058539 -0.0050146654 0.012253677 0.03630223 -0.018840509
-0.0061182515 0.021325888 -0.009119762 0.04221305 -0.02649643 -0.0470526 0.033537418 0.00083646935
-0.009780652 0.0052577625 0.08827085 0.025904074 0.018448586 0.07039976 -0.03576747 0.10619235
0.04062967 -0.029938981 -0.04918303 0.010482393 -0.018581709 -0.009049828 -0.012552189 0.020089937
-0.002932687 0.025392437 0.036541227 0.01841591 0.059003495 -0.012087693 0.053525 0.047794312
-0.016480222 -0.0218618 0.03551474 0.032869294 -0.009484722 0.010366744 0.03153002 -0.019214435
0.021002427 -0.016515244 0.055844028 0.010856109 -0.053903967 0.00960371 -0.021636639 0.018929498

value_network.7.bias f4 [100]
00000000: 7912 7d3d b290 e4bd 8144 51bb c52a abbc
00000010: 3d0c e23b ad98 303c 311a 263d bc01 803d
00000020: 40d8 80bd 2ddd 743f 489c 94bd e3eb 393d
00000030: 2897 08bc 10ab 973d 930d af3d d460 74bd
00000040: 8306 12be 8c43 23bd 3f8a cbbc 638f bdbd
00000050: d3f0 263e 44e2 833d 44ed 3ebd 5a6a 473e
00000060: 7953 ce3d bcfc f4bf c322 2dbd c547 06bc
00000070: 009b b53c e14d a73f 0466 99bd a7d3 d43a
00000080: 3a05 a23f 5f5d 1e3d 7b37 1e3e 5a6b 29be
00000090: 7d74 71bd 429b 7bbc 3ede 49c0 b2e3 6f3f
000000a0: 3344 2a3c 02ce 713d 1a97 9440 c472 583d
000000b0: 6cc5 4f3e eb0d 3fbb ac5d 23bd 1636 083e
000000c0: 209f 0fbe 0f1b fdbc a5b4 96bc 3be8 df3d
000000d0: 221f c73b 8782 10bd 259d 55bd 1472 92bd
000000e0: e2b3 fb3c dc62 04bd 02e3 88bd c564 81bd
000000f0: f04c d93d e908 7ebd 32fe a9bc 1a80 dabd
00000100: 42a1 b1bc f41e e93f b6a9 023e c1ba 49c0
00000110: 8b33 3b3e fbe7 a53d 92fe 8d3c d96e c8c0
00000120: 5b3b dc3c 07b8 89bb c1e7 ed3c 37dd 41bb
00000130: a9b3 7fbd 2700 853d 90c3 6d40 6f56 cc3d
00000140: 4096 c13c e3ba 75bd 5423 873b 024d f63b
00000150: bf9a 953d 11fa a6bc 9b80 a9bd 0904 a5bc
00000160: e283 dcbd 0d52 2cbd 571a 263d 187f e23d
00000170: b1e0 4e40 75e7 ac3d 0b3d 833f 2baf 9cbb
00000180: f5bf 4d3d 139e a8bd 44e6 2e3d b1ab edbe
0.061785195 -0.11160411 -0.00319317 -0.020894418 0.0068984316 0.010778588 0.04055232 0.06250331
-0.062912464 0.9564999 -0.07256371 0.045390975 -0.00833682 0.074056745 0.08547511 -0.059662655
-0.14260297 -0.03985934 -0.024846194 -0.092558645 0.16302805 0.06439641 -0.046612993 0.19474164
0.10074515 -1.9139628 -0.04226948 -0.008195822 0.022168636 1.3070642 -0.07490161 0.0016237394
1.2657845 0.038663264 0.15450852 -0.16544858 -0.058948983 -0.015356841 -3.1541896 0.9370681
0.0103922365 0.059034355 4.643445 0.052843824 0.20290154 -0.0029152583 -0.039884254 0.13301882
-0.14025545 -0.030896692 -0.018396685 0.10932966 0.0060767094 -0.03528073 -0.052151818 -0.07150665
0.030725423 -0.032320842 -0.06683923 -0.063180484 0.10610378 -0.062020216 -0.020751093 -0.10668965
-0.021683339 1.8212571 0.12760052 -3.1520236 0.18281381 0.081008874 0.017333303 -6.263531
0.026883772 -0.004202846 0.029041173 -0.0029581317 -0.062427197 0.0649417 3.7150612 0.099774234
0.023631215 -0.059992682 0.0041240845 0.0075165043 0.07304906 -0.020382913 -0.08276483 -0.020143526
-0.10767342 -0.042070437 0.040552463 0.110593975 3.232464 0.084425844 1.0253004 -0.004781624
0.050231893 -0.08233275 0.042700067 -0.46420053

value_network.9.weight f4 [50, 100]
00000000: 0d7f 15bb 314c 7d3c e439 e8ba 50b2 e13b
00000010: 1de1 2d3b c3fc 153b 5ec7 403c b72f 45bc
00000020: 0b1b d5bb 8f74 f03a c4fd 3fbc 45e6 02ba
00000030: 9a02 503b 3ad4 fa3b 7e27 f4ba a52e 94b7
00000040: fe57 143c 9127 003c 1683 00bc f545 bd3b
00000050: c939 a9bb efe2 7aba 1e09 1bbc afcf 86bb
00000060: f9d3 013a 2303 9ebb 2f4f 9c3a 49d0 e33a
00000070: 9151 b6ba 7a0f 3b3c 9ced 2abb 0e29 30bc
00000080: a34b d6b8 c26c 27bb 80b3 e4bb e5f1 87bb
00000090: d6fb 19ba 7802 0e3b f695 5d39 a292 89ba
000000a0: f4d9 54bb d43e 11bc 6e9b d1ba f369 293c
000000b0: b3be 573c f748 253b 0d5d 903c 3ed1 29bb
000000c0: 7826 2a3c 8c1b c43b 1e35 afbb 0277 eaba
000000d0: 0907 d93b 76c4 0dbc 963a 8dbb 1446 c7bb
000000e0: cbd4 51b9 17d1 c73b 8936 9cbb 6604 8ebb
000000f0: d32a 8c3b ef66 933b b487 e13b 2580 8ebb
00000100: ee63 123b 9b33 e63a 6322 c53b 016a 72bb
00000110: 95b9 13bb ed63 d43b 88f1 213a eeca 3f3b
00000120: 954e 6dba 59b7 c3ba 1657 4dbb 1660 38ba
00000130: d3b2 c43b 56e1 e7b8 67dd babb 8388 f93a
00000140: fb89 ce3a c625 1bbc 1fce 653c 46eb 223c
00000150: b464 73ba 2139 983a 57cb a4ba f78e adbb
00000160: 8c02 ba3a ef36 99ba 51c5 5c3c e744 e2bb
00000170: e673 0a3b b408 f8bb c03a db3b a311 883b
00000180: 4785 283c 4b7f ca3a dc53 43ba f0ea b1ba
00000190: 302b fa3a f4a5 47bb adef 5db9 28eb 0dbb
000001a0: 1eda bbb8 64db 6e3b f7cc 42bc 4ab4 fd3a
000001b0: 1a18 9fbb 7c55 c1ba a7c8 5d3b a9a1 943b
000001c0: f182 7e3b da6c 7abc c469 513c b053 a2bb
000001d0: 5336 97bb be4b b1ba 7869 0bbc c4c0 753a
000001e0: 8b47 533c 4f56 673c b9b1 1fbc 98a6 0dbc
000001f0: 0306 673b c866 9bba 7ebd 0a3c 82cd dbbb
00000200: 9b5b 30bb 2ae2 84ba c9c0 4b3b b909 6b3c
00000210: 44d4 e8ba e4b5 5bbb 630e 8b3b a627 c23b
00000220: 64a2 1a3b 4da5 cebb be84 d23a 7861 daba
00000230: 045d 31bc 7e4d e6b9 3c73 03bb 815c 863a
00000240: 026a a23b d39a b63a 9235 5fbb 2607 81bb
00000250: 8e26 b7b9 dfe3 1bbc da62 e13a 2d4e 2c3c
00000260: 21ed c6b9 1965 373c 68e8 9fbb 94b8 96bb
00000270: 1418 1bbc dbbf cabb e3e1 a03c db90 513c
00000280: 83a8 063c e5de e33b c507 bf3b 23e2 543c
00000290: 8198 be39 cd71 2fb9 7eff 80bb 91e9 cbb8
000002a0: 95f5 cd3a a4be 30b9 9815 42bc 7d45 fe39
000002b0: be34 adba ae6b 24bc 139e 5f3c b675 e9bb
000002c0: 11cc 8abb e074 0dbc de1d 763a 1b06 29ba
000002d0: e7de 093c 0176 8cbb f5a1 acbb aa2c b03b
000002e0: 7a9d fabb 5d5b 0c3b da4a 8abb 12a6 a83b
000002f0: 6801 773b 2c72 5d3c b3c2 eabb f049 10bc
00000300: 380d d93a 6af0 983b e379 0bba c5db 923b
00000310: ed58 b6ba c1a9 d7ba 50f3 683b 7b97 75ba
00000320: 7188 853b 2375 f3ba 577f be39 6c93 77bb
00000330: a15f 74bb d12d a4bb 76ed b63b 126b 483b
00000340: 5acd 773b f2ea 76bb c6b6 4fbc 0b45 12bb
00000350: 0923 a23b 1676 5bbc f051 4a3b 5a6d 7cba
00000360: c8ce f03b f424 31bc d8a8 8d3b 1d76 8dbc
00000370: 733c 00bc 9452 dd37 0930 5bba 0fee 893b
00000380: e9a1 7bbb ac3d 10bc 9dcc 033c c232 f63b
00000390: 271e 9abb 2799 94bb 4ce6 5f3c 41e4 0bbb
000003a0: 2214 1cbc 9ac8 07bb 0092 f93a d678 763b
000003b0: 977a 41bb 6df6 343b 0e67 80b9 be76 1a3c
000003c0: 6be3 20bc b536 afbb 4ea4 abba ca8f 593b
000003d0: e811 2339 cc7d 32bc 58f6 ecbb fb7d 95ba
000003e0: c0db 40bb ff94 0e3c 9e91 8c3b 16ca 743b
000003f0: bc6f bb3b e3e0 30bb d3c4 9e3a 2e7a 133c
-0.0022811324 0.01546006 -0.0017717448 0.0068877116 0.0026531883 0.0022886253 0.011766283 -0.012035302
-0.006503468 0.0018345284 -0.011718217 -0.0004993419 0.0031739832 0.007654694 -0.0018627492 -1.7664695e-05
0.009054182 0.007821933 -0.007843753 0.005776162 -0.005164359 -0.0009570559 -0.009462623 -0.0041141133
0.0004952546 -0.0048221513 0.0011925454 0.0017380799 -0.0013909807 0.011417264 -0.0026081568 -0.010751976
-0.000102184036 -0.0025547002 -0.006979406 -0.004148709 -0.00058740133 0.0021668952 0.00021132067 -0.001049597
-0.0032478543 -0.008865077 -0.0015991756 0.010340202 0.013168025 0.0025220492 0.017622495 -0.0025912072
0.010385148 0.005984729 -0.0053469082 -0.001788825 0.006623153 -0.008652797 -0.0043099625 -0.006081352
-0.00020011065 0.0060979235 -0.0047672433 -0.0043340204 0.004277566 0.0044983546 0.006882632 -0.004348772
0.0022337395 0.0017562987 0.006016062 -0.0036989453 -0.0022541035 0.0064816386 0.00061776536 0.0029265243
-0.0009052542 -0.0014931961 -0.0031332425 -0.0007033361 0.006002763 -0.000110569104 -0.0057026627 0.0019037876
0.0015757674 -0.009469455 0.014026194 0.009943789 -0.000928472 0.0011613705 -0.0012572807 -0.0052965838
0.0014191433 -0.0011689345 0.013474778 -0.0069051865 0.002112621 -0.007569397 0.006690353 0.004152493
0.010285682 0.0015449313 -0.00074511557 -0.0013574045 0.0019086357 -0.0030463906 -0.00021165489 -0.0021655057
-8.957482e-05 0.0036446685 -0.011889688 0.0019356098 -0.004855168 -0.0014750208 0.0033841522 0.004535873
0.0038835371 -0.015284741 0.012781564 -0.004953824 -0.0046146302 -0.0013526601 -0.008509032 0.00093747326
0.012895475 0.014119699 -0.009746962 -0.008645676 0.0035251386 -0.0011856193 0.00846803 -0.006707848
-0.002691007 -0.0010138203 0.003109025 0.01434558 -0.0017763455 -0.0033525163 0.0042436584 0.0059251366
0.0023595328 -0.0063063265 0.0016061289 -0.0016661128 -0.010825399 -0.00043926755 -0.0020057699 0.0010250957
0.004956485 0.0013931639 -0.003405903 -0.0039376197 -0.00034933205 -0.009514778 0.0017195598 0.010516685
-0.00037942178 0.011193537 -0.00488 -0.00459964 -0.00946619 -0.0061874217 0.019638961 0.012790884
0.008218887 0.0069540613 0.0058297836 0.012993368 0.00036353248 -0.00016731695 -0.003936707 -9.7232994e-05
0.0015713448 -0.00016855687 -0.011845969 0.00048498428 -0.0013214571 -0.010035438 0.013648528 -0.007124628
-0.0042357524 -0.008633822 0.0009388606 -0.0006447748 0.0084149605 -0.004286528 -0.00526833 0.005376418
-0.007648167 0.0021416761 -0.004220349 0.0051467502 0.0037690047 0.01351599 -0.0071643232 -0.008806691
0.0016559726 0.0046673315 -0.0005320592 0.004481765 -0.0013912 -0.0016453789 0.0035545416 -0.00093685806
0.004075103 -0.0018574338 0.000363345 -0.003777708 -0.0037288445 -0.0050103446 0.005582507 0.0030581397
0.0037811608 -0.003767666 -0.012677854 -0.0022318985 0.004948024 -0.013394853 0.0030871592 -0.0009629332
0.007348869 -0.010812033 0.0043231063 -0.017268235 -0.007826912 2.6383706e-05 -0.0008361345 0.004209287
-0.0038396067 -0.008803766 0.008044389 0.007513375 -0.0047033015 -0.0045348587 0.013665747 -0.0021345767
-0.009526284 -0.0020718933 0.0019040704 0.0037608645 -0.0029522532 0.0027612702 -0.00024490844 0.009427724
-0.009819846 -0.0053470978 -0.0013095231 0.0033197277 0.00015551562 -0.01089425 -0.007231515 -0.0011405343
-0.0029427856 0.008702516 0.00428982 0.0037351898 0.005720107 -0.0026989512 0.0012113102 0.009001298

value_network.9.bias f4 [50]
00000000: 043f 033c 0e37 cc3a ad42 d9bb e37f 9f3b
00000010: c797 16bd 1067 4f3c bd17 1e3d 2c47 453c
00000020: 1e13 7ebc 26a9 16bd 10db 5c3c da55 f53b
00000030: 8402 88bc 6052 253e 6bc5 0d39 989a b83c
00000040: edab 8dbc cd5c d9bb 32a5 a2bd da28 abbc
00000050: 50d2 bb3c 4f76 53bc b308 e5bd 201b 35bc
00000060: f116 b33c 3702 f43b 9bcc 3d3c 82b3 cdbc
00000070: b362 fbbb a4eb ea3b adc4 88bc ba1b 7ebc
00000080: 0ac8 f83c 0bb9 6b3c 4d01 12bc da5f 58bb
00000090: e71d ce3b 288b 01bb 1bab 833c 0df6 e3bc
000000a0: e633 c63c 801c 803b 52da a83b 711c b13c
000000b0: 5a9d d33a b946 b5bb 8d00 6d3c cf58 0dbc
000000c0: 02ad e93a 7916 453c
0.00801063 0.0015580372 -0.006630263 0.00486754 -0.03676584 0.012658849 0.038596857 0.0120408945
-0.015507488 -0.036782406 0.013479963 0.007487041 -0.016602762 0.16144705 0.00013520352 0.022534654
-0.017293895 -0.006633377 -0.07941665 -0.020893503 0.022927433 -0.012906625 -0.111833 -0.01105383
0.021861525 0.007446553 0.011584426 -0.02511001 -0.007671678 0.007169204 -0.016695345 -0.01550954
0.030368824 0.014387379 -0.008911443 -0.0033016116 0.0062901857 -0.0019766781 0.0160728 -0.027827287
0.024194669 0.0039096475 0.005152979 0.021620007 0.0016144917 -0.0055321124 0.014465463 -0.008627131
0.001782805 0.012029284

value_network.11.weight f4 [1, 50]
00000000: aec4 16b9 d6ac e739 96ca 283a 8fb6 35ba
00000010: fd9c d639 0a22 68ba 59b8 1fbb e416 1bba
00000020: 794c 453a 7b2a 803b 7ab9 bfba c9a2 1cba
00000030: c862 cc3a e1a6 34be 5d7d 8938 067c 7bba
00000040: 0829 0f3a f382 ae3a d858 50bb 29f2 9d3a
00000050: ddf9 3bbb b415 973a d3c8 2a3e 83e8 b339
00000060: ec0f 8fba 7f1f cdb9 95f7 50ba 5eec 743a
00000070: 2634 453a 3e68 c4b9 cee8 abbb ccfc b13a
00000080: 4586 9fbb 8f9f 9eb9 8b78 a339 7021 08b9
00000090: 7c46 13b7 0bf8 663b 9a67 8aba 3924 e23a
000000a0: b962 fdba fec4 4fb9 5903 59ba d915 7eba
000000b0: 45f6 d43a a2c6 c93a cba2 a8ba 21e2 033a
000000c0: 3d78 dd39 03b0 8fba
-0.00014378384 0.00044188526 0.0006438879 -0.00069318054 0.00040934226 -0.000885517 -0.0024371354 -0.0005916192
0.0007526349 0.003911314 -0.001462742 -0.00059751846 0.0015593404 -0.17641784 6.55602e-05 -0.0009593371
0.0005461131 0.0013314172 -0.0031791236 0.0012050319 -0.0028682866 0.0011526854 0.16678171 0.00034314775
-0.0010914779 -0.00039124113 -0.0007971463 0.0009343083 0.00075227243 -0.000374617 -0.0052462583 0.0013579368
-0.004868301 -0.0003025499 0.00031179594 -0.00012982427 -8.778294e-06 0.003524306 -0.001055944 0.0017253227
-0.001933179 -0.00019814444 -0.0008278392 -0.00096925866 0.001624771 0.001539428 -0.0012865899 0.0005030949
0.0004224199 -0.001096249
